node {
  name: "Placeholder"
  op: "Placeholder"
  attr {
    key: "dtype"
    value {
      type: DT_FLOAT
    }
  }
  attr {
    key: "shape"
    value {
      shape {
        dim {
          size: 1
        }
        dim {
          size: 200
        }
        dim {
          size: 200
        }
        dim {
          size: 3
        }
      }
    }
  }
}
node {
  name: "Placeholder_1"
  op: "Placeholder"
  attr {
    key: "dtype"
    value {
      type: DT_FLOAT
    }
  }
  attr {
    key: "shape"
    value {
      shape {
        dim {
          size: 1
        }
        dim {
          size: 26
        }
        dim {
          size: 26
        }
        dim {
          size: 21
        }
      }
    }
  }
}
node {
  name: "Placeholder_2"
  op: "Placeholder"
  attr {
    key: "dtype"
    value {
      type: DT_FLOAT
    }
  }
  attr {
    key: "shape"
    value {
      shape {
        dim {
          size: 1
        }
        dim {
          size: 26
        }
        dim {
          size: 26
        }
        dim {
          size: 21
        }
      }
    }
  }
}
node {
  name: "Placeholder_3"
  op: "Placeholder"
  attr {
    key: "dtype"
    value {
      type: DT_FLOAT
    }
  }
  attr {
    key: "shape"
    value {
      shape {
        dim {
          size: 1
        }
        dim {
          size: 26
        }
        dim {
          size: 26
        }
        dim {
          size: 42
        }
      }
    }
  }
}
node {
  name: "Placeholder_4"
  op: "Placeholder"
  attr {
    key: "dtype"
    value {
      type: DT_FLOAT
    }
  }
  attr {
    key: "shape"
    value {
      shape {
        dim {
          size: 1
        }
        dim {
          size: 26
        }
        dim {
          size: 26
        }
        dim {
          size: 42
        }
      }
    }
  }
}
node {
  name: "fifo_queue"
  op: "FIFOQueueV2"
  attr {
    key: "capacity"
    value {
      i: 20
    }
  }
  attr {
    key: "component_types"
    value {
      list {
        type: DT_FLOAT
        type: DT_FLOAT
        type: DT_FLOAT
        type: DT_FLOAT
        type: DT_FLOAT
      }
    }
  }
  attr {
    key: "container"
    value {
      s: ""
    }
  }
  attr {
    key: "shapes"
    value {
      list {
      }
    }
  }
  attr {
    key: "shared_name"
    value {
      s: ""
    }
  }
}
node {
  name: "fifo_queue_enqueue"
  op: "QueueEnqueueV2"
  input: "fifo_queue"
  input: "Placeholder"
  input: "Placeholder_1"
  input: "Placeholder_2"
  input: "Placeholder_3"
  input: "Placeholder_4"
  attr {
    key: "Tcomponents"
    value {
      list {
        type: DT_FLOAT
        type: DT_FLOAT
        type: DT_FLOAT
        type: DT_FLOAT
        type: DT_FLOAT
      }
    }
  }
  attr {
    key: "timeout_ms"
    value {
      i: -1
    }
  }
}
node {
  name: "fifo_queue_Dequeue"
  op: "QueueDequeueV2"
  input: "fifo_queue"
  attr {
    key: "component_types"
    value {
      list {
        type: DT_FLOAT
        type: DT_FLOAT
        type: DT_FLOAT
        type: DT_FLOAT
        type: DT_FLOAT
      }
    }
  }
  attr {
    key: "timeout_ms"
    value {
      i: -1
    }
  }
}
node {
  name: "img_mean"
  op: "Const"
  attr {
    key: "dtype"
    value {
      type: DT_FLOAT
    }
  }
  attr {
    key: "value"
    value {
      tensor {
        dtype: DT_FLOAT
        tensor_shape {
          dim {
            size: 1
          }
          dim {
            size: 1
          }
          dim {
            size: 1
          }
          dim {
            size: 3
          }
        }
        tensor_content: ")\\\367B\331\216\351B\305\340\317B"
      }
    }
  }
}
node {
  name: "sub"
  op: "Sub"
  input: "fifo_queue_Dequeue"
  input: "img_mean"
  attr {
    key: "T"
    value {
      type: DT_FLOAT
    }
  }
}
node {
  name: "resnet_v1_50/Pad/paddings"
  op: "Const"
  attr {
    key: "dtype"
    value {
      type: DT_INT32
    }
  }
  attr {
    key: "value"
    value {
      tensor {
        dtype: DT_INT32
        tensor_shape {
          dim {
            size: 4
          }
          dim {
            size: 2
          }
        }
        tensor_content: "…"
      }
    }
  }
}
node {
  name: "resnet_v1_50/Pad"
  op: "Pad"
  input: "sub"
  input: "resnet_v1_50/Pad/paddings"
  attr {
    key: "T"
    value {
      type: DT_FLOAT
    }
  }
  attr {
    key: "Tpaddings"
    value {
      type: DT_INT32
    }
  }
}
node {
  name: "resnet_v1_50/conv1/weights/Initializer/truncated_normal/shape"
  op: "Const"
  attr {
    key: "_class"
    value {
      list {
        s: "loc:@resnet_v1_50/conv1/weights"
      }
    }
  }
  attr {
    key: "dtype"
    value {
      type: DT_INT32
    }
  }
  attr {
    key: "value"
    value {
      tensor {
        dtype: DT_INT32
        tensor_shape {
          dim {
            size: 4
          }
        }
        tensor_content: "\007\000\000\000\007\000\000\000\003\000\000\000@\000\000\000"
      }
    }
  }
}
node {
  name: "resnet_v1_50/conv1/weights/Initializer/truncated_normal/mean"
  op: "Const"
  attr {
    key: "_class"
    value {
      list {
        s: "loc:@resnet_v1_50/conv1/weights"
      }
    }
  }
  attr {
    key: "dtype"
    value {
      type: DT_FLOAT
    }
  }
  attr {
    key: "value"
    value {
      tensor {
        dtype: DT_FLOAT
        tensor_shape {
        }
        float_val: 0.0
      }
    }
  }
}
node {
  name: "resnet_v1_50/conv1/weights/Initializer/truncated_normal/stddev"
  op: "Const"
  attr {
    key: "_class"
    value {
      list {
        s: "loc:@resnet_v1_50/conv1/weights"
      }
    }
  }
  attr {
    key: "dtype"
    value {
      type: DT_FLOAT
    }
  }
  attr {
    key: "value"
    value {
      tensor {
        dtype: DT_FLOAT
        tensor_shape {
        }
        float_val: 0.13299275934696198
      }
    }
  }
}
node {
  name: "resnet_v1_50/conv1/weights/Initializer/truncated_normal/TruncatedNormal"
  op: "TruncatedNormal"
  input: "resnet_v1_50/conv1/weights/Initializer/truncated_normal/shape"
  attr {
    key: "T"
    value {
      type: DT_INT32
    }
  }
  attr {
    key: "_class"
    value {
      list {
        s: "loc:@resnet_v1_50/conv1/weights"
      }
    }
  }
  attr {
    key: "dtype"
    value {
      type: DT_FLOAT
    }
  }
  attr {
    key: "seed"
    value {
      i: 0
    }
  }
  attr {
    key: "seed2"
    value {
      i: 0
    }
  }
}
node {
  name: "resnet_v1_50/conv1/weights/Initializer/truncated_normal/mul"
  op: "Mul"
  input: "resnet_v1_50/conv1/weights/Initializer/truncated_normal/TruncatedNormal"
  input: "resnet_v1_50/conv1/weights/Initializer/truncated_normal/stddev"
  attr {
    key: "T"
    value {
      type: DT_FLOAT
    }
  }
  attr {
    key: "_class"
    value {
      list {
        s: "loc:@resnet_v1_50/conv1/weights"
      }
    }
  }
}
node {
  name: "resnet_v1_50/conv1/weights/Initializer/truncated_normal"
  op: "Add"
  input: "resnet_v1_50/conv1/weights/Initializer/truncated_normal/mul"
  input: "resnet_v1_50/conv1/weights/Initializer/truncated_normal/mean"
  attr {
    key: "T"
    value {
      type: DT_FLOAT
    }
  }
  attr {
    key: "_class"
    value {
      list {
        s: "loc:@resnet_v1_50/conv1/weights"
      }
    }
  }
}
node {
  name: "resnet_v1_50/conv1/weights"
  op: "VariableV2"
  attr {
    key: "_class"
    value {
      list {
        s: "loc:@resnet_v1_50/conv1/weights"
      }
    }
  }
  attr {
    key: "container"
    value {
      s: ""
    }
  }
  attr {
    key: "dtype"
    value {
      type: DT_FLOAT
    }
  }
  attr {
    key: "shape"
    value {
      shape {
        dim {
          size: 7
        }
        dim {
          size: 7
        }
        dim {
          size: 3
        }
        dim {
          size: 64
        }
      }
    }
  }
  attr {
    key: "shared_name"
    value {
      s: ""
    }
  }
}
node {
  name: "resnet_v1_50/conv1/weights/Assign"
  op: "Assign"
  input: "resnet_v1_50/conv1/weights"
  input: "resnet_v1_50/conv1/weights/Initializer/truncated_normal"
  attr {
    key: "T"
    value {
      type: DT_FLOAT
    }
  }
  attr {
    key: "_class"
    value {
      list {
        s: "loc:@resnet_v1_50/conv1/weights"
      }
    }
  }
  attr {
    key: "use_locking"
    value {
      b: true
    }
  }
  attr {
    key: "validate_shape"
    value {
      b: true
    }
  }
}
node {
  name: "resnet_v1_50/conv1/weights/read"
  op: "Identity"
  input: "resnet_v1_50/conv1/weights"
  attr {
    key: "T"
    value {
      type: DT_FLOAT
    }
  }
  attr {
    key: "_class"
    value {
      list {
        s: "loc:@resnet_v1_50/conv1/weights"
      }
    }
  }
}
node {
  name: "resnet_v1_50/conv1/kernel/Regularizer/l2_regularizer/scale"
  op: "Const"
  attr {
    key: "dtype"
    value {
      type: DT_FLOAT
    }
  }
  attr {
    key: "value"
    value {
      tensor {
        dtype: DT_FLOAT
        tensor_shape {
        }
        float_val: 9.999999747378752e-05
      }
    }
  }
}
node {
  name: "resnet_v1_50/conv1/kernel/Regularizer/l2_regularizer/L2Loss"
  op: "L2Loss"
  input: "resnet_v1_50/conv1/weights/read"
  attr {
    key: "T"
    value {
      type: DT_FLOAT
    }
  }
}
node {
  name: "resnet_v1_50/conv1/kernel/Regularizer/l2_regularizer"
  op: "Mul"
  input: "resnet_v1_50/conv1/kernel/Regularizer/l2_regularizer/scale"
  input: "resnet_v1_50/conv1/kernel/Regularizer/l2_regularizer/L2Loss"
  attr {
    key: "T"
    value {
      type: DT_FLOAT
    }
  }
}
node {
  name: "resnet_v1_50/conv1/dilation_rate"
  op: "Const"
  attr {
    key: "dtype"
    value {
      type: DT_INT32
    }
  }
  attr {
    key: "value"
    value {
      tensor {
        dtype: DT_INT32
        tensor_shape {
          dim {
            size: 2
          }
        }
        tensor_content: "\001\000\000\000\001\000\000\000"
      }
    }
  }
}
node {
  name: "resnet_v1_50/conv1/Conv2D"
  op: "Conv2D"
  input: "resnet_v1_50/Pad"
  input: "resnet_v1_50/conv1/weights/read"
  attr {
    key: "T"
    value {
      type: DT_FLOAT
    }
  }
  attr {
    key: "data_format"
    value {
      s: "NHWC"
    }
  }
  attr {
    key: "dilations"
    value {
      list {
        i: 1
        i: 1
        i: 1
        i: 1
      }
    }
  }
  attr {
    key: "explicit_paddings"
    value {
      list {
      }
    }
  }
  attr {
    key: "padding"
    value {
      s: "VALID"
    }
  }
  attr {
    key: "strides"
    value {
      list {
        i: 1
        i: 2
        i: 2
        i: 1
      }
    }
  }
  attr {
    key: "use_cudnn_on_gpu"
    value {
      b: true
    }
  }
}
node {
  name: "resnet_v1_50/conv1/BatchNorm/gamma/Initializer/ones"
  op: "Const"
  attr {
    key: "_class"
    value {
      list {
        s: "loc:@resnet_v1_50/conv1/BatchNorm/gamma"
      }
    }
  }
  attr {
    key: "dtype"
    value {
      type: DT_FLOAT
    }
  }
  attr {
    key: "value"
    value {
      tensor {
        dtype: DT_FLOAT
        tensor_shape {
          dim {
            size: 64
          }
        }
        float_val: 1.0
      }
    }
  }
}
node {
  name: "resnet_v1_50/conv1/BatchNorm/gamma"
  op: "VariableV2"
  attr {
    key: "_class"
    value {
      list {
        s: "loc:@resnet_v1_50/conv1/BatchNorm/gamma"
      }
    }
  }
  attr {
    key: "container"
    value {
      s: ""
    }
  }
  attr {
    key: "dtype"
    value {
      type: DT_FLOAT
    }
  }
  attr {
    key: "shape"
    value {
      shape {
        dim {
          size: 64
        }
      }
    }
  }
  attr {
    key: "shared_name"
    value {
      s: ""
    }
  }
}
node {
  name: "resnet_v1_50/conv1/BatchNorm/gamma/Assign"
  op: "Assign"
  input: "resnet_v1_50/conv1/BatchNorm/gamma"
  input: "resnet_v1_50/conv1/BatchNorm/gamma/Initializer/ones"
  attr {
    key: "T"
    value {
      type: DT_FLOAT
    }
  }
  attr {
    key: "_class"
    value {
      list {
        s: "loc:@resnet_v1_50/conv1/BatchNorm/gamma"
      }
    }
  }
  attr {
    key: "use_locking"
    value {
      b: true
    }
  }
  attr {
    key: "validate_shape"
    value {
      b: true
    }
  }
}
node {
  name: "resnet_v1_50/conv1/BatchNorm/gamma/read"
  op: "Identity"
  input: "resnet_v1_50/conv1/BatchNorm/gamma"
  attr {
    key: "T"
    value {
      type: DT_FLOAT
    }
  }
  attr {
    key: "_class"
    value {
      list {
        s: "loc:@resnet_v1_50/conv1/BatchNorm/gamma"
      }
    }
  }
}
node {
  name: "resnet_v1_50/conv1/BatchNorm/beta/Initializer/zeros"
  op: "Const"
  attr {
    key: "_class"
    value {
      list {
        s: "loc:@resnet_v1_50/conv1/BatchNorm/beta"
      }
    }
  }
  attr {
    key: "dtype"
    value {
      type: DT_FLOAT
    }
  }
  attr {
    key: "value"
    value {
      tensor {
        dtype: DT_FLOAT
        tensor_shape {
          dim {
            size: 64
          }
        }
        float_val: 0.0
      }
    }
  }
}
node {
  name: "resnet_v1_50/conv1/BatchNorm/beta"
  op: "VariableV2"
  attr {
    key: "_class"
    value {
      list {
        s: "loc:@resnet_v1_50/conv1/BatchNorm/beta"
      }
    }
  }
  attr {
    key: "container"
    value {
      s: ""
    }
  }
  attr {
    key: "dtype"
    value {
      type: DT_FLOAT
    }
  }
  attr {
    key: "shape"
    value {
      shape {
        dim {
          size: 64
        }
      }
    }
  }
  attr {
    key: "shared_name"
    value {
      s: ""
    }
  }
}
node {
  name: "resnet_v1_50/conv1/BatchNorm/beta/Assign"
  op: "Assign"
  input: "resnet_v1_50/conv1/BatchNorm/beta"
  input: "resnet_v1_50/conv1/BatchNorm/beta/Initializer/zeros"
  attr {
    key: "T"
    value {
      type: DT_FLOAT
    }
  }
  attr {
    key: "_class"
    value {
      list {
        s: "loc:@resnet_v1_50/conv1/BatchNorm/beta"
      }
    }
  }
  attr {
    key: "use_locking"
    value {
      b: true
    }
  }
  attr {
    key: "validate_shape"
    value {
      b: true
    }
  }
}
node {
  name: "resnet_v1_50/conv1/BatchNorm/beta/read"
  op: "Identity"
  input: "resnet_v1_50/conv1/BatchNorm/beta"
  attr {
    key: "T"
    value {
      type: DT_FLOAT
    }
  }
  attr {
    key: "_class"
    value {
      list {
        s: "loc:@resnet_v1_50/conv1/BatchNorm/beta"
      }
    }
  }
}
node {
  name: "resnet_v1_50/conv1/BatchNorm/moving_mean/Initializer/zeros"
  op: "Const"
  attr {
    key: "_class"
    value {
      list {
        s: "loc:@resnet_v1_50/conv1/BatchNorm/moving_mean"
      }
    }
  }
  attr {
    key: "dtype"
    value {
      type: DT_FLOAT
    }
  }
  attr {
    key: "value"
    value {
      tensor {
        dtype: DT_FLOAT
        tensor_shape {
          dim {
            size: 64
          }
        }
        float_val: 0.0
      }
    }
  }
}
node {
  name: "resnet_v1_50/conv1/BatchNorm/moving_mean"
  op: "VariableV2"
  attr {
    key: "_class"
    value {
      list {
        s: "loc:@resnet_v1_50/conv1/BatchNorm/moving_mean"
      }
    }
  }
  attr {
    key: "container"
    value {
      s: ""
    }
  }
  attr {
    key: "dtype"
    value {
      type: DT_FLOAT
    }
  }
  attr {
    key: "shape"
    value {
      shape {
        dim {
          size: 64
        }
      }
    }
  }
  attr {
    key: "shared_name"
    value {
      s: ""
    }
  }
}
node {
  name: "resnet_v1_50/conv1/BatchNorm/moving_mean/Assign"
  op: "Assign"
  input: "resnet_v1_50/conv1/BatchNorm/moving_mean"
  input: "resnet_v1_50/conv1/BatchNorm/moving_mean/Initializer/zeros"
  attr {
    key: "T"
    value {
      type: DT_FLOAT
    }
  }
  attr {
    key: "_class"
    value {
      list {
        s: "loc:@resnet_v1_50/conv1/BatchNorm/moving_mean"
      }
    }
  }
  attr {
    key: "use_locking"
    value {
      b: true
    }
  }
  attr {
    key: "validate_shape"
    value {
      b: true
    }
  }
}
node {
  name: "resnet_v1_50/conv1/BatchNorm/moving_mean/read"
  op: "Identity"
  input: "resnet_v1_50/conv1/BatchNorm/moving_mean"
  attr {
    key: "T"
    value {
      type: DT_FLOAT
    }
  }
  attr {
    key: "_class"
    value {
      list {
        s: "loc:@resnet_v1_50/conv1/BatchNorm/moving_mean"
      }
    }
  }
}
node {
  name: "resnet_v1_50/conv1/BatchNorm/moving_variance/Initializer/ones"
  op: "Const"
  attr {
    key: "_class"
    value {
      list {
        s: "loc:@resnet_v1_50/conv1/BatchNorm/moving_variance"
      }
    }
  }
  attr {
    key: "dtype"
    value {
      type: DT_FLOAT
    }
  }
  attr {
    key: "value"
    value {
      tensor {
        dtype: DT_FLOAT
        tensor_shape {
          dim {
            size: 64
          }
        }
        float_val: 1.0
      }
    }
  }
}
node {
  name: "resnet_v1_50/conv1/BatchNorm/moving_variance"
  op: "VariableV2"
  attr {
    key: "_class"
    value {
      list {
        s: "loc:@resnet_v1_50/conv1/BatchNorm/moving_variance"
      }
    }
  }
  attr {
    key: "container"
    value {
      s: ""
    }
  }
  attr {
    key: "dtype"
    value {
      type: DT_FLOAT
    }
  }
  attr {
    key: "shape"
    value {
      shape {
        dim {
          size: 64
        }
      }
    }
  }
  attr {
    key: "shared_name"
    value {
      s: ""
    }
  }
}
node {
  name: "resnet_v1_50/conv1/BatchNorm/moving_variance/Assign"
  op: "Assign"
  input: "resnet_v1_50/conv1/BatchNorm/moving_variance"
  input: "resnet_v1_50/conv1/BatchNorm/moving_variance/Initializer/ones"
  attr {
    key: "T"
    value {
      type: DT_FLOAT
    }
  }
  attr {
    key: "_class"
    value {
      list {
        s: "loc:@resnet_v1_50/conv1/BatchNorm/moving_variance"
      }
    }
  }
  attr {
    key: "use_locking"
    value {
      b: true
    }
  }
  attr {
    key: "validate_shape"
    value {
      b: true
    }
  }
}
node {
  name: "resnet_v1_50/conv1/BatchNorm/moving_variance/read"
  op: "Identity"
  input: "resnet_v1_50/conv1/BatchNorm/moving_variance"
  attr {
    key: "T"
    value {
      type: DT_FLOAT
    }
  }
  attr {
    key: "_class"
    value {
      list {
        s: "loc:@resnet_v1_50/conv1/BatchNorm/moving_variance"
      }
    }
  }
}
node {
  name: "resnet_v1_50/conv1/BatchNorm/FusedBatchNorm"
  op: "FusedBatchNorm"
  input: "resnet_v1_50/conv1/Conv2D"
  input: "resnet_v1_50/conv1/BatchNorm/gamma/read"
  input: "resnet_v1_50/conv1/BatchNorm/beta/read"
  input: "resnet_v1_50/conv1/BatchNorm/moving_mean/read"
  input: "resnet_v1_50/conv1/BatchNorm/moving_variance/read"
  attr {
    key: "T"
    value {
      type: DT_FLOAT
    }
  }
  attr {
    key: "data_format"
    value {
      s: "NHWC"
    }
  }
  attr {
    key: "epsilon"
    value {
      f: 1.0009999641624745e-05
    }
  }
  attr {
    key: "is_training"
    value {
      b: false
    }
  }
}
node {
  name: "resnet_v1_50/conv1/BatchNorm/Const"
  op: "Const"
  attr {
    key: "dtype"
    value {
      type: DT_FLOAT
    }
  }
  attr {
    key: "value"
    value {
      tensor {
        dtype: DT_FLOAT
        tensor_shape {
        }
        float_val: 0.996999979019165
      }
    }
  }
}
node {
  name: "resnet_v1_50/conv1/Relu"
  op: "Relu"
  input: "resnet_v1_50/conv1/BatchNorm/FusedBatchNorm"
  attr {
    key: "T"
    value {
      type: DT_FLOAT
    }
  }
}
node {
  name: "resnet_v1_50/pool1/MaxPool"
  op: "MaxPool"
  input: "resnet_v1_50/conv1/Relu"
  attr {
    key: "T"
    value {
      type: DT_FLOAT
    }
  }
  attr {
    key: "data_format"
    value {
      s: "NHWC"
    }
  }
  attr {
    key: "ksize"
    value {
      list {
        i: 1
        i: 3
        i: 3
        i: 1
      }
    }
  }
  attr {
    key: "padding"
    value {
      s: "SAME"
    }
  }
  attr {
    key: "strides"
    value {
      list {
        i: 1
        i: 2
        i: 2
        i: 1
      }
    }
  }
}
node {
  name: "resnet_v1_50/block1/unit_1/bottleneck_v1/shortcut/weights/Initializer/truncated_normal/shape"
  op: "Const"
  attr {
    key: "_class"
    value {
      list {
        s: "loc:@resnet_v1_50/block1/unit_1/bottleneck_v1/shortcut/weights"
      }
    }
  }
  attr {
    key: "dtype"
    value {
      type: DT_INT32
    }
  }
  attr {
    key: "value"
    value {
      tensor {
        dtype: DT_INT32
        tensor_shape {
          dim {
            size: 4
          }
        }
        tensor_content: "\001\000\000\000\001\000\000\000@\000\000\000\000\001\000\000"
      }
    }
  }
}
node {
  name: "resnet_v1_50/block1/unit_1/bottleneck_v1/shortcut/weights/Initializer/truncated_normal/mean"
  op: "Const"
  attr {
    key: "_class"
    value {
      list {
        s: "loc:@resnet_v1_50/block1/unit_1/bottleneck_v1/shortcut/weights"
      }
    }
  }
  attr {
    key: "dtype"
    value {
      type: DT_FLOAT
    }
  }
  attr {
    key: "value"
    value {
      tensor {
        dtype: DT_FLOAT
        tensor_shape {
        }
        float_val: 0.0
      }
    }
  }
}
node {
  name: "resnet_v1_50/block1/unit_1/bottleneck_v1/shortcut/weights/Initializer/truncated_normal/stddev"
  op: "Const"
  attr {
    key: "_class"
    value {
      list {
        s: "loc:@resnet_v1_50/block1/unit_1/bottleneck_v1/shortcut/weights"
      }
    }
  }
  attr {
    key: "dtype"
    value {
      type: DT_FLOAT
    }
  }
  attr {
    key: "value"
    value {
      tensor {
        dtype: DT_FLOAT
        tensor_shape {
        }
        float_val: 0.20155644416809082
      }
    }
  }
}
node {
  name: "resnet_v1_50/block1/unit_1/bottleneck_v1/shortcut/weights/Initializer/truncated_normal/TruncatedNormal"
  op: "TruncatedNormal"
  input: "resnet_v1_50/block1/unit_1/bottleneck_v1/shortcut/weights/Initializer/truncated_normal/shape"
  attr {
    key: "T"
    value {
      type: DT_INT32
    }
  }
  attr {
    key: "_class"
    value {
      list {
        s: "loc:@resnet_v1_50/block1/unit_1/bottleneck_v1/shortcut/weights"
      }
    }
  }
  attr {
    key: "dtype"
    value {
      type: DT_FLOAT
    }
  }
  attr {
    key: "seed"
    value {
      i: 0
    }
  }
  attr {
    key: "seed2"
    value {
      i: 0
    }
  }
}
node {
  name: "resnet_v1_50/block1/unit_1/bottleneck_v1/shortcut/weights/Initializer/truncated_normal/mul"
  op: "Mul"
  input: "resnet_v1_50/block1/unit_1/bottleneck_v1/shortcut/weights/Initializer/truncated_normal/TruncatedNormal"
  input: "resnet_v1_50/block1/unit_1/bottleneck_v1/shortcut/weights/Initializer/truncated_normal/stddev"
  attr {
    key: "T"
    value {
      type: DT_FLOAT
    }
  }
  attr {
    key: "_class"
    value {
      list {
        s: "loc:@resnet_v1_50/block1/unit_1/bottleneck_v1/shortcut/weights"
      }
    }
  }
}
node {
  name: "resnet_v1_50/block1/unit_1/bottleneck_v1/shortcut/weights/Initializer/truncated_normal"
  op: "Add"
  input: "resnet_v1_50/block1/unit_1/bottleneck_v1/shortcut/weights/Initializer/truncated_normal/mul"
  input: "resnet_v1_50/block1/unit_1/bottleneck_v1/shortcut/weights/Initializer/truncated_normal/mean"
  attr {
    key: "T"
    value {
      type: DT_FLOAT
    }
  }
  attr {
    key: "_class"
    value {
      list {
        s: "loc:@resnet_v1_50/block1/unit_1/bottleneck_v1/shortcut/weights"
      }
    }
  }
}
node {
  name: "resnet_v1_50/block1/unit_1/bottleneck_v1/shortcut/weights"
  op: "VariableV2"
  attr {
    key: "_class"
    value {
      list {
        s: "loc:@resnet_v1_50/block1/unit_1/bottleneck_v1/shortcut/weights"
      }
    }
  }
  attr {
    key: "container"
    value {
      s: ""
    }
  }
  attr {
    key: "dtype"
    value {
      type: DT_FLOAT
    }
  }
  attr {
    key: "shape"
    value {
      shape {
        dim {
          size: 1
        }
        dim {
          size: 1
        }
        dim {
          size: 64
        }
        dim {
          size: 256
        }
      }
    }
  }
  attr {
    key: "shared_name"
    value {
      s: ""
    }
  }
}
node {
  name: "resnet_v1_50/block1/unit_1/bottleneck_v1/shortcut/weights/Assign"
  op: "Assign"
  input: "resnet_v1_50/block1/unit_1/bottleneck_v1/shortcut/weights"
  input: "resnet_v1_50/block1/unit_1/bottleneck_v1/shortcut/weights/Initializer/truncated_normal"
  attr {
    key: "T"
    value {
      type: DT_FLOAT
    }
  }
  attr {
    key: "_class"
    value {
      list {
        s: "loc:@resnet_v1_50/block1/unit_1/bottleneck_v1/shortcut/weights"
      }
    }
  }
  attr {
    key: "use_locking"
    value {
      b: true
    }
  }
  attr {
    key: "validate_shape"
    value {
      b: true
    }
  }
}
node {
  name: "resnet_v1_50/block1/unit_1/bottleneck_v1/shortcut/weights/read"
  op: "Identity"
  input: "resnet_v1_50/block1/unit_1/bottleneck_v1/shortcut/weights"
  attr {
    key: "T"
    value {
      type: DT_FLOAT
    }
  }
  attr {
    key: "_class"
    value {
      list {
        s: "loc:@resnet_v1_50/block1/unit_1/bottleneck_v1/shortcut/weights"
      }
    }
  }
}
node {
  name: "resnet_v1_50/block1/unit_1/bottleneck_v1/shortcut/kernel/Regularizer/l2_regularizer/scale"
  op: "Const"
  attr {
    key: "dtype"
    value {
      type: DT_FLOAT
    }
  }
  attr {
    key: "value"
    value {
      tensor {
        dtype: DT_FLOAT
        tensor_shape {
        }
        float_val: 9.999999747378752e-05
      }
    }
  }
}
node {
  name: "resnet_v1_50/block1/unit_1/bottleneck_v1/shortcut/kernel/Regularizer/l2_regularizer/L2Loss"
  op: "L2Loss"
  input: "resnet_v1_50/block1/unit_1/bottleneck_v1/shortcut/weights/read"
  attr {
    key: "T"
    value {
      type: DT_FLOAT
    }
  }
}
node {
  name: "resnet_v1_50/block1/unit_1/bottleneck_v1/shortcut/kernel/Regularizer/l2_regularizer"
  op: "Mul"
  input: "resnet_v1_50/block1/unit_1/bottleneck_v1/shortcut/kernel/Regularizer/l2_regularizer/scale"
  input: "resnet_v1_50/block1/unit_1/bottleneck_v1/shortcut/kernel/Regularizer/l2_regularizer/L2Loss"
  attr {
    key: "T"
    value {
      type: DT_FLOAT
    }
  }
}
node {
  name: "resnet_v1_50/block1/unit_1/bottleneck_v1/shortcut/dilation_rate"
  op: "Const"
  attr {
    key: "dtype"
    value {
      type: DT_INT32
    }
  }
  attr {
    key: "value"
    value {
      tensor {
        dtype: DT_INT32
        tensor_shape {
          dim {
            size: 2
          }
        }
        tensor_content: "\001\000\000\000\001\000\000\000"
      }
    }
  }
}
node {
  name: "resnet_v1_50/block1/unit_1/bottleneck_v1/shortcut/Conv2D"
  op: "Conv2D"
  input: "resnet_v1_50/pool1/MaxPool"
  input: "resnet_v1_50/block1/unit_1/bottleneck_v1/shortcut/weights/read"
  attr {
    key: "T"
    value {
      type: DT_FLOAT
    }
  }
  attr {
    key: "data_format"
    value {
      s: "NHWC"
    }
  }
  attr {
    key: "dilations"
    value {
      list {
        i: 1
        i: 1
        i: 1
        i: 1
      }
    }
  }
  attr {
    key: "explicit_paddings"
    value {
      list {
      }
    }
  }
  attr {
    key: "padding"
    value {
      s: "SAME"
    }
  }
  attr {
    key: "strides"
    value {
      list {
        i: 1
        i: 1
        i: 1
        i: 1
      }
    }
  }
  attr {
    key: "use_cudnn_on_gpu"
    value {
      b: true
    }
  }
}
node {
  name: "resnet_v1_50/block1/unit_1/bottleneck_v1/shortcut/BatchNorm/gamma/Initializer/ones"
  op: "Const"
  attr {
    key: "_class"
    value {
      list {
        s: "loc:@resnet_v1_50/block1/unit_1/bottleneck_v1/shortcut/BatchNorm/gamma"
      }
    }
  }
  attr {
    key: "dtype"
    value {
      type: DT_FLOAT
    }
  }
  attr {
    key: "value"
    value {
      tensor {
        dtype: DT_FLOAT
        tensor_shape {
          dim {
            size: 256
          }
        }
        float_val: 1.0
      }
    }
  }
}
node {
  name: "resnet_v1_50/block1/unit_1/bottleneck_v1/shortcut/BatchNorm/gamma"
  op: "VariableV2"
  attr {
    key: "_class"
    value {
      list {
        s: "loc:@resnet_v1_50/block1/unit_1/bottleneck_v1/shortcut/BatchNorm/gamma"
      }
    }
  }
  attr {
    key: "container"
    value {
      s: ""
    }
  }
  attr {
    key: "dtype"
    value {
      type: DT_FLOAT
    }
  }
  attr {
    key: "shape"
    value {
      shape {
        dim {
          size: 256
        }
      }
    }
  }
  attr {
    key: "shared_name"
    value {
      s: ""
    }
  }
}
node {
  name: "resnet_v1_50/block1/unit_1/bottleneck_v1/shortcut/BatchNorm/gamma/Assign"
  op: "Assign"
  input: "resnet_v1_50/block1/unit_1/bottleneck_v1/shortcut/BatchNorm/gamma"
  input: "resnet_v1_50/block1/unit_1/bottleneck_v1/shortcut/BatchNorm/gamma/Initializer/ones"
  attr {
    key: "T"
    value {
      type: DT_FLOAT
    }
  }
  attr {
    key: "_class"
    value {
      list {
        s: "loc:@resnet_v1_50/block1/unit_1/bottleneck_v1/shortcut/BatchNorm/gamma"
      }
    }
  }
  attr {
    key: "use_locking"
    value {
      b: true
    }
  }
  attr {
    key: "validate_shape"
    value {
      b: true
    }
  }
}
node {
  name: "resnet_v1_50/block1/unit_1/bottleneck_v1/shortcut/BatchNorm/gamma/read"
  op: "Identity"
  input: "resnet_v1_50/block1/unit_1/bottleneck_v1/shortcut/BatchNorm/gamma"
  attr {
    key: "T"
    value {
      type: DT_FLOAT
    }
  }
  attr {
    key: "_class"
    value {
      list {
        s: "loc:@resnet_v1_50/block1/unit_1/bottleneck_v1/shortcut/BatchNorm/gamma"
      }
    }
  }
}
node {
  name: "resnet_v1_50/block1/unit_1/bottleneck_v1/shortcut/BatchNorm/beta/Initializer/zeros"
  op: "Const"
  attr {
    key: "_class"
    value {
      list {
        s: "loc:@resnet_v1_50/block1/unit_1/bottleneck_v1/shortcut/BatchNorm/beta"
      }
    }
  }
  attr {
    key: "dtype"
    value {
      type: DT_FLOAT
    }
  }
  attr {
    key: "value"
    value {
      tensor {
        dtype: DT_FLOAT
        tensor_shape {
          dim {
            size: 256
          }
        }
        float_val: 0.0
      }
    }
  }
}
node {
  name: "resnet_v1_50/block1/unit_1/bottleneck_v1/shortcut/BatchNorm/beta"
  op: "VariableV2"
  attr {
    key: "_class"
    value {
      list {
        s: "loc:@resnet_v1_50/block1/unit_1/bottleneck_v1/shortcut/BatchNorm/beta"
      }
    }
  }
  attr {
    key: "container"
    value {
      s: ""
    }
  }
  attr {
    key: "dtype"
    value {
      type: DT_FLOAT
    }
  }
  attr {
    key: "shape"
    value {
      shape {
        dim {
          size: 256
        }
      }
    }
  }
  attr {
    key: "shared_name"
    value {
      s: ""
    }
  }
}
node {
  name: "resnet_v1_50/block1/unit_1/bottleneck_v1/shortcut/BatchNorm/beta/Assign"
  op: "Assign"
  input: "resnet_v1_50/block1/unit_1/bottleneck_v1/shortcut/BatchNorm/beta"
  input: "resnet_v1_50/block1/unit_1/bottleneck_v1/shortcut/BatchNorm/beta/Initializer/zeros"
  attr {
    key: "T"
    value {
      type: DT_FLOAT
    }
  }
  attr {
    key: "_class"
    value {
      list {
        s: "loc:@resnet_v1_50/block1/unit_1/bottleneck_v1/shortcut/BatchNorm/beta"
      }
    }
  }
  attr {
    key: "use_locking"
    value {
      b: true
    }
  }
  attr {
    key: "validate_shape"
    value {
      b: true
    }
  }
}
node {
  name: "resnet_v1_50/block1/unit_1/bottleneck_v1/shortcut/BatchNorm/beta/read"
  op: "Identity"
  input: "resnet_v1_50/block1/unit_1/bottleneck_v1/shortcut/BatchNorm/beta"
  attr {
    key: "T"
    value {
      type: DT_FLOAT
    }
  }
  attr {
    key: "_class"
    value {
      list {
        s: "loc:@resnet_v1_50/block1/unit_1/bottleneck_v1/shortcut/BatchNorm/beta"
      }
    }
  }
}
node {
  name: "resnet_v1_50/block1/unit_1/bottleneck_v1/shortcut/BatchNorm/moving_mean/Initializer/zeros"
  op: "Const"
  attr {
    key: "_class"
    value {
      list {
        s: "loc:@resnet_v1_50/block1/unit_1/bottleneck_v1/shortcut/BatchNorm/moving_mean"
      }
    }
  }
  attr {
    key: "dtype"
    value {
      type: DT_FLOAT
    }
  }
  attr {
    key: "value"
    value {
      tensor {
        dtype: DT_FLOAT
        tensor_shape {
          dim {
            size: 256
          }
        }
        float_val: 0.0
      }
    }
  }
}
node {
  name: "resnet_v1_50/block1/unit_1/bottleneck_v1/shortcut/BatchNorm/moving_mean"
  op: "VariableV2"
  attr {
    key: "_class"
    value {
      list {
        s: "loc:@resnet_v1_50/block1/unit_1/bottleneck_v1/shortcut/BatchNorm/moving_mean"
      }
    }
  }
  attr {
    key: "container"
    value {
      s: ""
    }
  }
  attr {
    key: "dtype"
    value {
      type: DT_FLOAT
    }
  }
  attr {
    key: "shape"
    value {
      shape {
        dim {
          size: 256
        }
      }
    }
  }
  attr {
    key: "shared_name"
    value {
      s: ""
    }
  }
}
node {
  name: "resnet_v1_50/block1/unit_1/bottleneck_v1/shortcut/BatchNorm/moving_mean/Assign"
  op: "Assign"
  input: "resnet_v1_50/block1/unit_1/bottleneck_v1/shortcut/BatchNorm/moving_mean"
  input: "resnet_v1_50/block1/unit_1/bottleneck_v1/shortcut/BatchNorm/moving_mean/Initializer/zeros"
  attr {
    key: "T"
    value {
      type: DT_FLOAT
    }
  }
  attr {
    key: "_class"
    value {
      list {
        s: "loc:@resnet_v1_50/block1/unit_1/bottleneck_v1/shortcut/BatchNorm/moving_mean"
      }
    }
  }
  attr {
    key: "use_locking"
    value {
      b: true
    }
  }
  attr {
    key: "validate_shape"
    value {
      b: true
    }
  }
}
node {
  name: "resnet_v1_50/block1/unit_1/bottleneck_v1/shortcut/BatchNorm/moving_mean/read"
  op: "Identity"
  input: "resnet_v1_50/block1/unit_1/bottleneck_v1/shortcut/BatchNorm/moving_mean"
  attr {
    key: "T"
    value {
      type: DT_FLOAT
    }
  }
  attr {
    key: "_class"
    value {
      list {
        s: "loc:@resnet_v1_50/block1/unit_1/bottleneck_v1/shortcut/BatchNorm/moving_mean"
      }
    }
  }
}
node {
  name: "resnet_v1_50/block1/unit_1/bottleneck_v1/shortcut/BatchNorm/moving_variance/Initializer/ones"
  op: "Const"
  attr {
    key: "_class"
    value {
      list {
        s: "loc:@resnet_v1_50/block1/unit_1/bottleneck_v1/shortcut/BatchNorm/moving_variance"
      }
    }
  }
  attr {
    key: "dtype"
    value {
      type: DT_FLOAT
    }
  }
  attr {
    key: "value"
    value {
      tensor {
        dtype: DT_FLOAT
        tensor_shape {
          dim {
            size: 256
          }
        }
        float_val: 1.0
      }
    }
  }
}
node {
  name: "resnet_v1_50/block1/unit_1/bottleneck_v1/shortcut/BatchNorm/moving_variance"
  op: "VariableV2"
  attr {
    key: "_class"
    value {
      list {
        s: "loc:@resnet_v1_50/block1/unit_1/bottleneck_v1/shortcut/BatchNorm/moving_variance"
      }
    }
  }
  attr {
    key: "container"
    value {
      s: ""
    }
  }
  attr {
    key: "dtype"
    value {
      type: DT_FLOAT
    }
  }
  attr {
    key: "shape"
    value {
      shape {
        dim {
          size: 256
        }
      }
    }
  }
  attr {
    key: "shared_name"
    value {
      s: ""
    }
  }
}
node {
  name: "resnet_v1_50/block1/unit_1/bottleneck_v1/shortcut/BatchNorm/moving_variance/Assign"
  op: "Assign"
  input: "resnet_v1_50/block1/unit_1/bottleneck_v1/shortcut/BatchNorm/moving_variance"
  input: "resnet_v1_50/block1/unit_1/bottleneck_v1/shortcut/BatchNorm/moving_variance/Initializer/ones"
  attr {
    key: "T"
    value {
      type: DT_FLOAT
    }
  }
  attr {
    key: "_class"
    value {
      list {
        s: "loc:@resnet_v1_50/block1/unit_1/bottleneck_v1/shortcut/BatchNorm/moving_variance"
      }
    }
  }
  attr {
    key: "use_locking"
    value {
      b: true
    }
  }
  attr {
    key: "validate_shape"
    value {
      b: true
    }
  }
}
node {
  name: "resnet_v1_50/block1/unit_1/bottleneck_v1/shortcut/BatchNorm/moving_variance/read"
  op: "Identity"
  input: "resnet_v1_50/block1/unit_1/bottleneck_v1/shortcut/BatchNorm/moving_variance"
  attr {
    key: "T"
    value {
      type: DT_FLOAT
    }
  }
  attr {
    key: "_class"
    value {
      list {
        s: "loc:@resnet_v1_50/block1/unit_1/bottleneck_v1/shortcut/BatchNorm/moving_variance"
      }
    }
  }
}
node {
  name: "resnet_v1_50/block1/unit_1/bottleneck_v1/shortcut/BatchNorm/FusedBatchNorm"
  op: "FusedBatchNorm"
  input: "resnet_v1_50/block1/unit_1/bottleneck_v1/shortcut/Conv2D"
  input: "resnet_v1_50/block1/unit_1/bottleneck_v1/shortcut/BatchNorm/gamma/read"
  input: "resnet_v1_50/block1/unit_1/bottleneck_v1/shortcut/BatchNorm/beta/read"
  input: "resnet_v1_50/block1/unit_1/bottleneck_v1/shortcut/BatchNorm/moving_mean/read"
  input: "resnet_v1_50/block1/unit_1/bottleneck_v1/shortcut/BatchNorm/moving_variance/read"
  attr {
    key: "T"
    value {
      type: DT_FLOAT
    }
  }
  attr {
    key: "data_format"
    value {
      s: "NHWC"
    }
  }
  attr {
    key: "epsilon"
    value {
      f: 1.0009999641624745e-05
    }
  }
  attr {
    key: "is_training"
    value {
      b: false
    }
  }
}
node {
  name: "resnet_v1_50/block1/unit_1/bottleneck_v1/shortcut/BatchNorm/Const"
  op: "Const"
  attr {
    key: "dtype"
    value {
      type: DT_FLOAT
    }
  }
  attr {
    key: "value"
    value {
      tensor {
        dtype: DT_FLOAT
        tensor_shape {
        }
        float_val: 0.996999979019165
      }
    }
  }
}
node {
  name: "resnet_v1_50/block1/unit_1/bottleneck_v1/conv1/weights/Initializer/truncated_normal/shape"
  op: "Const"
  attr {
    key: "_class"
    value {
      list {
        s: "loc:@resnet_v1_50/block1/unit_1/bottleneck_v1/conv1/weights"
      }
    }
  }
  attr {
    key: "dtype"
    value {
      type: DT_INT32
    }
  }
  attr {
    key: "value"
    value {
      tensor {
        dtype: DT_INT32
        tensor_shape {
          dim {
            size: 4
          }
        }
        tensor_content: "\001\000\000\000\001\000\000\000@\000\000\000@\000\000\000"
      }
    }
  }
}
node {
  name: "resnet_v1_50/block1/unit_1/bottleneck_v1/conv1/weights/Initializer/truncated_normal/mean"
  op: "Const"
  attr {
    key: "_class"
    value {
      list {
        s: "loc:@resnet_v1_50/block1/unit_1/bottleneck_v1/conv1/weights"
      }
    }
  }
  attr {
    key: "dtype"
    value {
      type: DT_FLOAT
    }
  }
  attr {
    key: "value"
    value {
      tensor {
        dtype: DT_FLOAT
        tensor_shape {
        }
        float_val: 0.0
      }
    }
  }
}
node {
  name: "resnet_v1_50/block1/unit_1/bottleneck_v1/conv1/weights/Initializer/truncated_normal/stddev"
  op: "Const"
  attr {
    key: "_class"
    value {
      list {
        s: "loc:@resnet_v1_50/block1/unit_1/bottleneck_v1/conv1/weights"
      }
    }
  }
  attr {
    key: "dtype"
    value {
      type: DT_FLOAT
    }
  }
  attr {
    key: "value"
    value {
      tensor {
        dtype: DT_FLOAT
        tensor_shape {
        }
        float_val: 0.20155644416809082
      }
    }
  }
}
node {
  name: "resnet_v1_50/block1/unit_1/bottleneck_v1/conv1/weights/Initializer/truncated_normal/TruncatedNormal"
  op: "TruncatedNormal"
  input: "resnet_v1_50/block1/unit_1/bottleneck_v1/conv1/weights/Initializer/truncated_normal/shape"
  attr {
    key: "T"
    value {
      type: DT_INT32
    }
  }
  attr {
    key: "_class"
    value {
      list {
        s: "loc:@resnet_v1_50/block1/unit_1/bottleneck_v1/conv1/weights"
      }
    }
  }
  attr {
    key: "dtype"
    value {
      type: DT_FLOAT
    }
  }
  attr {
    key: "seed"
    value {
      i: 0
    }
  }
  attr {
    key: "seed2"
    value {
      i: 0
    }
  }
}
node {
  name: "resnet_v1_50/block1/unit_1/bottleneck_v1/conv1/weights/Initializer/truncated_normal/mul"
  op: "Mul"
  input: "resnet_v1_50/block1/unit_1/bottleneck_v1/conv1/weights/Initializer/truncated_normal/TruncatedNormal"
  input: "resnet_v1_50/block1/unit_1/bottleneck_v1/conv1/weights/Initializer/truncated_normal/stddev"
  attr {
    key: "T"
    value {
      type: DT_FLOAT
    }
  }
  attr {
    key: "_class"
    value {
      list {
        s: "loc:@resnet_v1_50/block1/unit_1/bottleneck_v1/conv1/weights"
      }
    }
  }
}
node {
  name: "resnet_v1_50/block1/unit_1/bottleneck_v1/conv1/weights/Initializer/truncated_normal"
  op: "Add"
  input: "resnet_v1_50/block1/unit_1/bottleneck_v1/conv1/weights/Initializer/truncated_normal/mul"
  input: "resnet_v1_50/block1/unit_1/bottleneck_v1/conv1/weights/Initializer/truncated_normal/mean"
  attr {
    key: "T"
    value {
      type: DT_FLOAT
    }
  }
  attr {
    key: "_class"
    value {
      list {
        s: "loc:@resnet_v1_50/block1/unit_1/bottleneck_v1/conv1/weights"
      }
    }
  }
}
node {
  name: "resnet_v1_50/block1/unit_1/bottleneck_v1/conv1/weights"
  op: "VariableV2"
  attr {
    key: "_class"
    value {
      list {
        s: "loc:@resnet_v1_50/block1/unit_1/bottleneck_v1/conv1/weights"
      }
    }
  }
  attr {
    key: "container"
    value {
      s: ""
    }
  }
  attr {
    key: "dtype"
    value {
      type: DT_FLOAT
    }
  }
  attr {
    key: "shape"
    value {
      shape {
        dim {
          size: 1
        }
        dim {
          size: 1
        }
        dim {
          size: 64
        }
        dim {
          size: 64
        }
      }
    }
  }
  attr {
    key: "shared_name"
    value {
      s: ""
    }
  }
}
node {
  name: "resnet_v1_50/block1/unit_1/bottleneck_v1/conv1/weights/Assign"
  op: "Assign"
  input: "resnet_v1_50/block1/unit_1/bottleneck_v1/conv1/weights"
  input: "resnet_v1_50/block1/unit_1/bottleneck_v1/conv1/weights/Initializer/truncated_normal"
  attr {
    key: "T"
    value {
      type: DT_FLOAT
    }
  }
  attr {
    key: "_class"
    value {
      list {
        s: "loc:@resnet_v1_50/block1/unit_1/bottleneck_v1/conv1/weights"
      }
    }
  }
  attr {
    key: "use_locking"
    value {
      b: true
    }
  }
  attr {
    key: "validate_shape"
    value {
      b: true
    }
  }
}
node {
  name: "resnet_v1_50/block1/unit_1/bottleneck_v1/conv1/weights/read"
  op: "Identity"
  input: "resnet_v1_50/block1/unit_1/bottleneck_v1/conv1/weights"
  attr {
    key: "T"
    value {
      type: DT_FLOAT
    }
  }
  attr {
    key: "_class"
    value {
      list {
        s: "loc:@resnet_v1_50/block1/unit_1/bottleneck_v1/conv1/weights"
      }
    }
  }
}
node {
  name: "resnet_v1_50/block1/unit_1/bottleneck_v1/conv1/kernel/Regularizer/l2_regularizer/scale"
  op: "Const"
  attr {
    key: "dtype"
    value {
      type: DT_FLOAT
    }
  }
  attr {
    key: "value"
    value {
      tensor {
        dtype: DT_FLOAT
        tensor_shape {
        }
        float_val: 9.999999747378752e-05
      }
    }
  }
}
node {
  name: "resnet_v1_50/block1/unit_1/bottleneck_v1/conv1/kernel/Regularizer/l2_regularizer/L2Loss"
  op: "L2Loss"
  input: "resnet_v1_50/block1/unit_1/bottleneck_v1/conv1/weights/read"
  attr {
    key: "T"
    value {
      type: DT_FLOAT
    }
  }
}
node {
  name: "resnet_v1_50/block1/unit_1/bottleneck_v1/conv1/kernel/Regularizer/l2_regularizer"
  op: "Mul"
  input: "resnet_v1_50/block1/unit_1/bottleneck_v1/conv1/kernel/Regularizer/l2_regularizer/scale"
  input: "resnet_v1_50/block1/unit_1/bottleneck_v1/conv1/kernel/Regularizer/l2_regularizer/L2Loss"
  attr {
    key: "T"
    value {
      type: DT_FLOAT
    }
  }
}
node {
  name: "resnet_v1_50/block1/unit_1/bottleneck_v1/conv1/dilation_rate"
  op: "Const"
  attr {
    key: "dtype"
    value {
      type: DT_INT32
    }
  }
  attr {
    key: "value"
    value {
      tensor {
        dtype: DT_INT32
        tensor_shape {
          dim {
            size: 2
          }
        }
        tensor_content: "\001\000\000\000\001\000\000\000"
      }
    }
  }
}
node {
  name: "resnet_v1_50/block1/unit_1/bottleneck_v1/conv1/Conv2D"
  op: "Conv2D"
  input: "resnet_v1_50/pool1/MaxPool"
  input: "resnet_v1_50/block1/unit_1/bottleneck_v1/conv1/weights/read"
  attr {
    key: "T"
    value {
      type: DT_FLOAT
    }
  }
  attr {
    key: "data_format"
    value {
      s: "NHWC"
    }
  }
  attr {
    key: "dilations"
    value {
      list {
        i: 1
        i: 1
        i: 1
        i: 1
      }
    }
  }
  attr {
    key: "explicit_paddings"
    value {
      list {
      }
    }
  }
  attr {
    key: "padding"
    value {
      s: "SAME"
    }
  }
  attr {
    key: "strides"
    value {
      list {
        i: 1
        i: 1
        i: 1
        i: 1
      }
    }
  }
  attr {
    key: "use_cudnn_on_gpu"
    value {
      b: true
    }
  }
}
node {
  name: "resnet_v1_50/block1/unit_1/bottleneck_v1/conv1/BatchNorm/gamma/Initializer/ones"
  op: "Const"
  attr {
    key: "_class"
    value {
      list {
        s: "loc:@resnet_v1_50/block1/unit_1/bottleneck_v1/conv1/BatchNorm/gamma"
      }
    }
  }
  attr {
    key: "dtype"
    value {
      type: DT_FLOAT
    }
  }
  attr {
    key: "value"
    value {
      tensor {
        dtype: DT_FLOAT
        tensor_shape {
          dim {
            size: 64
          }
        }
        float_val: 1.0
      }
    }
  }
}
node {
  name: "resnet_v1_50/block1/unit_1/bottleneck_v1/conv1/BatchNorm/gamma"
  op: "VariableV2"
  attr {
    key: "_class"
    value {
      list {
        s: "loc:@resnet_v1_50/block1/unit_1/bottleneck_v1/conv1/BatchNorm/gamma"
      }
    }
  }
  attr {
    key: "container"
    value {
      s: ""
    }
  }
  attr {
    key: "dtype"
    value {
      type: DT_FLOAT
    }
  }
  attr {
    key: "shape"
    value {
      shape {
        dim {
          size: 64
        }
      }
    }
  }
  attr {
    key: "shared_name"
    value {
      s: ""
    }
  }
}
node {
  name: "resnet_v1_50/block1/unit_1/bottleneck_v1/conv1/BatchNorm/gamma/Assign"
  op: "Assign"
  input: "resnet_v1_50/block1/unit_1/bottleneck_v1/conv1/BatchNorm/gamma"
  input: "resnet_v1_50/block1/unit_1/bottleneck_v1/conv1/BatchNorm/gamma/Initializer/ones"
  attr {
    key: "T"
    value {
      type: DT_FLOAT
    }
  }
  attr {
    key: "_class"
    value {
      list {
        s: "loc:@resnet_v1_50/block1/unit_1/bottleneck_v1/conv1/BatchNorm/gamma"
      }
    }
  }
  attr {
    key: "use_locking"
    value {
      b: true
    }
  }
  attr {
    key: "validate_shape"
    value {
      b: true
    }
  }
}
node {
  name: "resnet_v1_50/block1/unit_1/bottleneck_v1/conv1/BatchNorm/gamma/read"
  op: "Identity"
  input: "resnet_v1_50/block1/unit_1/bottleneck_v1/conv1/BatchNorm/gamma"
  attr {
    key: "T"
    value {
      type: DT_FLOAT
    }
  }
  attr {
    key: "_class"
    value {
      list {
        s: "loc:@resnet_v1_50/block1/unit_1/bottleneck_v1/conv1/BatchNorm/gamma"
      }
    }
  }
}
node {
  name: "resnet_v1_50/block1/unit_1/bottleneck_v1/conv1/BatchNorm/beta/Initializer/zeros"
  op: "Const"
  attr {
    key: "_class"
    value {
      list {
        s: "loc:@resnet_v1_50/block1/unit_1/bottleneck_v1/conv1/BatchNorm/beta"
      }
    }
  }
  attr {
    key: "dtype"
    value {
      type: DT_FLOAT
    }
  }
  attr {
    key: "value"
    value {
      tensor {
        dtype: DT_FLOAT
        tensor_shape {
          dim {
            size: 64
          }
        }
        float_val: 0.0
      }
    }
  }
}
node {
  name: "resnet_v1_50/block1/unit_1/bottleneck_v1/conv1/BatchNorm/beta"
  op: "VariableV2"
  attr {
    key: "_class"
    value {
      list {
        s: "loc:@resnet_v1_50/block1/unit_1/bottleneck_v1/conv1/BatchNorm/beta"
      }
    }
  }
  attr {
    key: "container"
    value {
      s: ""
    }
  }
  attr {
    key: "dtype"
    value {
      type: DT_FLOAT
    }
  }
  attr {
    key: "shape"
    value {
      shape {
        dim {
          size: 64
        }
      }
    }
  }
  attr {
    key: "shared_name"
    value {
      s: ""
    }
  }
}
node {
  name: "resnet_v1_50/block1/unit_1/bottleneck_v1/conv1/BatchNorm/beta/Assign"
  op: "Assign"
  input: "resnet_v1_50/block1/unit_1/bottleneck_v1/conv1/BatchNorm/beta"
  input: "resnet_v1_50/block1/unit_1/bottleneck_v1/conv1/BatchNorm/beta/Initializer/zeros"
  attr {
    key: "T"
    value {
      type: DT_FLOAT
    }
  }
  attr {
    key: "_class"
    value {
      list {
        s: "loc:@resnet_v1_50/block1/unit_1/bottleneck_v1/conv1/BatchNorm/beta"
      }
    }
  }
  attr {
    key: "use_locking"
    value {
      b: true
    }
  }
  attr {
    key: "validate_shape"
    value {
      b: true
    }
  }
}
node {
  name: "resnet_v1_50/block1/unit_1/bottleneck_v1/conv1/BatchNorm/beta/read"
  op: "Identity"
  input: "resnet_v1_50/block1/unit_1/bottleneck_v1/conv1/BatchNorm/beta"
  attr {
    key: "T"
    value {
      type: DT_FLOAT
    }
  }
  attr {
    key: "_class"
    value {
      list {
        s: "loc:@resnet_v1_50/block1/unit_1/bottleneck_v1/conv1/BatchNorm/beta"
      }
    }
  }
}
node {
  name: "resnet_v1_50/block1/unit_1/bottleneck_v1/conv1/BatchNorm/moving_mean/Initializer/zeros"
  op: "Const"
  attr {
    key: "_class"
    value {
      list {
        s: "loc:@resnet_v1_50/block1/unit_1/bottleneck_v1/conv1/BatchNorm/moving_mean"
      }
    }
  }
  attr {
    key: "dtype"
    value {
      type: DT_FLOAT
    }
  }
  attr {
    key: "value"
    value {
      tensor {
        dtype: DT_FLOAT
        tensor_shape {
          dim {
            size: 64
          }
        }
        float_val: 0.0
      }
    }
  }
}
node {
  name: "resnet_v1_50/block1/unit_1/bottleneck_v1/conv1/BatchNorm/moving_mean"
  op: "VariableV2"
  attr {
    key: "_class"
    value {
      list {
        s: "loc:@resnet_v1_50/block1/unit_1/bottleneck_v1/conv1/BatchNorm/moving_mean"
      }
    }
  }
  attr {
    key: "container"
    value {
      s: ""
    }
  }
  attr {
    key: "dtype"
    value {
      type: DT_FLOAT
    }
  }
  attr {
    key: "shape"
    value {
      shape {
        dim {
          size: 64
        }
      }
    }
  }
  attr {
    key: "shared_name"
    value {
      s: ""
    }
  }
}
node {
  name: "resnet_v1_50/block1/unit_1/bottleneck_v1/conv1/BatchNorm/moving_mean/Assign"
  op: "Assign"
  input: "resnet_v1_50/block1/unit_1/bottleneck_v1/conv1/BatchNorm/moving_mean"
  input: "resnet_v1_50/block1/unit_1/bottleneck_v1/conv1/BatchNorm/moving_mean/Initializer/zeros"
  attr {
    key: "T"
    value {
      type: DT_FLOAT
    }
  }
  attr {
    key: "_class"
    value {
      list {
        s: "loc:@resnet_v1_50/block1/unit_1/bottleneck_v1/conv1/BatchNorm/moving_mean"
      }
    }
  }
  attr {
    key: "use_locking"
    value {
      b: true
    }
  }
  attr {
    key: "validate_shape"
    value {
      b: true
    }
  }
}
node {
  name: "resnet_v1_50/block1/unit_1/bottleneck_v1/conv1/BatchNorm/moving_mean/read"
  op: "Identity"
  input: "resnet_v1_50/block1/unit_1/bottleneck_v1/conv1/BatchNorm/moving_mean"
  attr {
    key: "T"
    value {
      type: DT_FLOAT
    }
  }
  attr {
    key: "_class"
    value {
      list {
        s: "loc:@resnet_v1_50/block1/unit_1/bottleneck_v1/conv1/BatchNorm/moving_mean"
      }
    }
  }
}
node {
  name: "resnet_v1_50/block1/unit_1/bottleneck_v1/conv1/BatchNorm/moving_variance/Initializer/ones"
  op: "Const"
  attr {
    key: "_class"
    value {
      list {
        s: "loc:@resnet_v1_50/block1/unit_1/bottleneck_v1/conv1/BatchNorm/moving_variance"
      }
    }
  }
  attr {
    key: "dtype"
    value {
      type: DT_FLOAT
    }
  }
  attr {
    key: "value"
    value {
      tensor {
        dtype: DT_FLOAT
        tensor_shape {
          dim {
            size: 64
          }
        }
        float_val: 1.0
      }
    }
  }
}
node {
  name: "resnet_v1_50/block1/unit_1/bottleneck_v1/conv1/BatchNorm/moving_variance"
  op: "VariableV2"
  attr {
    key: "_class"
    value {
      list {
        s: "loc:@resnet_v1_50/block1/unit_1/bottleneck_v1/conv1/BatchNorm/moving_variance"
      }
    }
  }
  attr {
    key: "container"
    value {
      s: ""
    }
  }
  attr {
    key: "dtype"
    value {
      type: DT_FLOAT
    }
  }
  attr {
    key: "shape"
    value {
      shape {
        dim {
          size: 64
        }
      }
    }
  }
  attr {
    key: "shared_name"
    value {
      s: ""
    }
  }
}
node {
  name: "resnet_v1_50/block1/unit_1/bottleneck_v1/conv1/BatchNorm/moving_variance/Assign"
  op: "Assign"
  input: "resnet_v1_50/block1/unit_1/bottleneck_v1/conv1/BatchNorm/moving_variance"
  input: "resnet_v1_50/block1/unit_1/bottleneck_v1/conv1/BatchNorm/moving_variance/Initializer/ones"
  attr {
    key: "T"
    value {
      type: DT_FLOAT
    }
  }
  attr {
    key: "_class"
    value {
      list {
        s: "loc:@resnet_v1_50/block1/unit_1/bottleneck_v1/conv1/BatchNorm/moving_variance"
      }
    }
  }
  attr {
    key: "use_locking"
    value {
      b: true
    }
  }
  attr {
    key: "validate_shape"
    value {
      b: true
    }
  }
}
node {
  name: "resnet_v1_50/block1/unit_1/bottleneck_v1/conv1/BatchNorm/moving_variance/read"
  op: "Identity"
  input: "resnet_v1_50/block1/unit_1/bottleneck_v1/conv1/BatchNorm/moving_variance"
  attr {
    key: "T"
    value {
      type: DT_FLOAT
    }
  }
  attr {
    key: "_class"
    value {
      list {
        s: "loc:@resnet_v1_50/block1/unit_1/bottleneck_v1/conv1/BatchNorm/moving_variance"
      }
    }
  }
}
node {
  name: "resnet_v1_50/block1/unit_1/bottleneck_v1/conv1/BatchNorm/FusedBatchNorm"
  op: "FusedBatchNorm"
  input: "resnet_v1_50/block1/unit_1/bottleneck_v1/conv1/Conv2D"
  input: "resnet_v1_50/block1/unit_1/bottleneck_v1/conv1/BatchNorm/gamma/read"
  input: "resnet_v1_50/block1/unit_1/bottleneck_v1/conv1/BatchNorm/beta/read"
  input: "resnet_v1_50/block1/unit_1/bottleneck_v1/conv1/BatchNorm/moving_mean/read"
  input: "resnet_v1_50/block1/unit_1/bottleneck_v1/conv1/BatchNorm/moving_variance/read"
  attr {
    key: "T"
    value {
      type: DT_FLOAT
    }
  }
  attr {
    key: "data_format"
    value {
      s: "NHWC"
    }
  }
  attr {
    key: "epsilon"
    value {
      f: 1.0009999641624745e-05
    }
  }
  attr {
    key: "is_training"
    value {
      b: false
    }
  }
}
node {
  name: "resnet_v1_50/block1/unit_1/bottleneck_v1/conv1/BatchNorm/Const"
  op: "Const"
  attr {
    key: "dtype"
    value {
      type: DT_FLOAT
    }
  }
  attr {
    key: "value"
    value {
      tensor {
        dtype: DT_FLOAT
        tensor_shape {
        }
        float_val: 0.996999979019165
      }
    }
  }
}
node {
  name: "resnet_v1_50/block1/unit_1/bottleneck_v1/conv1/Relu"
  op: "Relu"
  input: "resnet_v1_50/block1/unit_1/bottleneck_v1/conv1/BatchNorm/FusedBatchNorm"
  attr {
    key: "T"
    value {
      type: DT_FLOAT
    }
  }
}
node {
  name: "resnet_v1_50/block1/unit_1/bottleneck_v1/conv2/weights/Initializer/truncated_normal/shape"
  op: "Const"
  attr {
    key: "_class"
    value {
      list {
        s: "loc:@resnet_v1_50/block1/unit_1/bottleneck_v1/conv2/weights"
      }
    }
  }
  attr {
    key: "dtype"
    value {
      type: DT_INT32
    }
  }
  attr {
    key: "value"
    value {
      tensor {
        dtype: DT_INT32
        tensor_shape {
          dim {
            size: 4
          }
        }
        tensor_content: "\003\000\000\000\003\000\000\000@\000\000\000@\000\000\000"
      }
    }
  }
}
node {
  name: "resnet_v1_50/block1/unit_1/bottleneck_v1/conv2/weights/Initializer/truncated_normal/mean"
  op: "Const"
  attr {
    key: "_class"
    value {
      list {
        s: "loc:@resnet_v1_50/block1/unit_1/bottleneck_v1/conv2/weights"
      }
    }
  }
  attr {
    key: "dtype"
    value {
      type: DT_FLOAT
    }
  }
  attr {
    key: "value"
    value {
      tensor {
        dtype: DT_FLOAT
        tensor_shape {
        }
        float_val: 0.0
      }
    }
  }
}
node {
  name: "resnet_v1_50/block1/unit_1/bottleneck_v1/conv2/weights/Initializer/truncated_normal/stddev"
  op: "Const"
  attr {
    key: "_class"
    value {
      list {
        s: "loc:@resnet_v1_50/block1/unit_1/bottleneck_v1/conv2/weights"
      }
    }
  }
  attr {
    key: "dtype"
    value {
      type: DT_FLOAT
    }
  }
  attr {
    key: "value"
    value {
      tensor {
        dtype: DT_FLOAT
        tensor_shape {
        }
        float_val: 0.06718548387289047
      }
    }
  }
}
node {
  name: "resnet_v1_50/block1/unit_1/bottleneck_v1/conv2/weights/Initializer/truncated_normal/TruncatedNormal"
  op: "TruncatedNormal"
  input: "resnet_v1_50/block1/unit_1/bottleneck_v1/conv2/weights/Initializer/truncated_normal/shape"
  attr {
    key: "T"
    value {
      type: DT_INT32
    }
  }
  attr {
    key: "_class"
    value {
      list {
        s: "loc:@resnet_v1_50/block1/unit_1/bottleneck_v1/conv2/weights"
      }
    }
  }
  attr {
    key: "dtype"
    value {
      type: DT_FLOAT
    }
  }
  attr {
    key: "seed"
    value {
      i: 0
    }
  }
  attr {
    key: "seed2"
    value {
      i: 0
    }
  }
}
node {
  name: "resnet_v1_50/block1/unit_1/bottleneck_v1/conv2/weights/Initializer/truncated_normal/mul"
  op: "Mul"
  input: "resnet_v1_50/block1/unit_1/bottleneck_v1/conv2/weights/Initializer/truncated_normal/TruncatedNormal"
  input: "resnet_v1_50/block1/unit_1/bottleneck_v1/conv2/weights/Initializer/truncated_normal/stddev"
  attr {
    key: "T"
    value {
      type: DT_FLOAT
    }
  }
  attr {
    key: "_class"
    value {
      list {
        s: "loc:@resnet_v1_50/block1/unit_1/bottleneck_v1/conv2/weights"
      }
    }
  }
}
node {
  name: "resnet_v1_50/block1/unit_1/bottleneck_v1/conv2/weights/Initializer/truncated_normal"
  op: "Add"
  input: "resnet_v1_50/block1/unit_1/bottleneck_v1/conv2/weights/Initializer/truncated_normal/mul"
  input: "resnet_v1_50/block1/unit_1/bottleneck_v1/conv2/weights/Initializer/truncated_normal/mean"
  attr {
    key: "T"
    value {
      type: DT_FLOAT
    }
  }
  attr {
    key: "_class"
    value {
      list {
        s: "loc:@resnet_v1_50/block1/unit_1/bottleneck_v1/conv2/weights"
      }
    }
  }
}
node {
  name: "resnet_v1_50/block1/unit_1/bottleneck_v1/conv2/weights"
  op: "VariableV2"
  attr {
    key: "_class"
    value {
      list {
        s: "loc:@resnet_v1_50/block1/unit_1/bottleneck_v1/conv2/weights"
      }
    }
  }
  attr {
    key: "container"
    value {
      s: ""
    }
  }
  attr {
    key: "dtype"
    value {
      type: DT_FLOAT
    }
  }
  attr {
    key: "shape"
    value {
      shape {
        dim {
          size: 3
        }
        dim {
          size: 3
        }
        dim {
          size: 64
        }
        dim {
          size: 64
        }
      }
    }
  }
  attr {
    key: "shared_name"
    value {
      s: ""
    }
  }
}
node {
  name: "resnet_v1_50/block1/unit_1/bottleneck_v1/conv2/weights/Assign"
  op: "Assign"
  input: "resnet_v1_50/block1/unit_1/bottleneck_v1/conv2/weights"
  input: "resnet_v1_50/block1/unit_1/bottleneck_v1/conv2/weights/Initializer/truncated_normal"
  attr {
    key: "T"
    value {
      type: DT_FLOAT
    }
  }
  attr {
    key: "_class"
    value {
      list {
        s: "loc:@resnet_v1_50/block1/unit_1/bottleneck_v1/conv2/weights"
      }
    }
  }
  attr {
    key: "use_locking"
    value {
      b: true
    }
  }
  attr {
    key: "validate_shape"
    value {
      b: true
    }
  }
}
node {
  name: "resnet_v1_50/block1/unit_1/bottleneck_v1/conv2/weights/read"
  op: "Identity"
  input: "resnet_v1_50/block1/unit_1/bottleneck_v1/conv2/weights"
  attr {
    key: "T"
    value {
      type: DT_FLOAT
    }
  }
  attr {
    key: "_class"
    value {
      list {
        s: "loc:@resnet_v1_50/block1/unit_1/bottleneck_v1/conv2/weights"
      }
    }
  }
}
node {
  name: "resnet_v1_50/block1/unit_1/bottleneck_v1/conv2/kernel/Regularizer/l2_regularizer/scale"
  op: "Const"
  attr {
    key: "dtype"
    value {
      type: DT_FLOAT
    }
  }
  attr {
    key: "value"
    value {
      tensor {
        dtype: DT_FLOAT
        tensor_shape {
        }
        float_val: 9.999999747378752e-05
      }
    }
  }
}
node {
  name: "resnet_v1_50/block1/unit_1/bottleneck_v1/conv2/kernel/Regularizer/l2_regularizer/L2Loss"
  op: "L2Loss"
  input: "resnet_v1_50/block1/unit_1/bottleneck_v1/conv2/weights/read"
  attr {
    key: "T"
    value {
      type: DT_FLOAT
    }
  }
}
node {
  name: "resnet_v1_50/block1/unit_1/bottleneck_v1/conv2/kernel/Regularizer/l2_regularizer"
  op: "Mul"
  input: "resnet_v1_50/block1/unit_1/bottleneck_v1/conv2/kernel/Regularizer/l2_regularizer/scale"
  input: "resnet_v1_50/block1/unit_1/bottleneck_v1/conv2/kernel/Regularizer/l2_regularizer/L2Loss"
  attr {
    key: "T"
    value {
      type: DT_FLOAT
    }
  }
}
node {
  name: "resnet_v1_50/block1/unit_1/bottleneck_v1/conv2/dilation_rate"
  op: "Const"
  attr {
    key: "dtype"
    value {
      type: DT_INT32
    }
  }
  attr {
    key: "value"
    value {
      tensor {
        dtype: DT_INT32
        tensor_shape {
          dim {
            size: 2
          }
        }
        tensor_content: "\001\000\000\000\001\000\000\000"
      }
    }
  }
}
node {
  name: "resnet_v1_50/block1/unit_1/bottleneck_v1/conv2/Conv2D"
  op: "Conv2D"
  input: "resnet_v1_50/block1/unit_1/bottleneck_v1/conv1/Relu"
  input: "resnet_v1_50/block1/unit_1/bottleneck_v1/conv2/weights/read"
  attr {
    key: "T"
    value {
      type: DT_FLOAT
    }
  }
  attr {
    key: "data_format"
    value {
      s: "NHWC"
    }
  }
  attr {
    key: "dilations"
    value {
      list {
        i: 1
        i: 1
        i: 1
        i: 1
      }
    }
  }
  attr {
    key: "explicit_paddings"
    value {
      list {
      }
    }
  }
  attr {
    key: "padding"
    value {
      s: "SAME"
    }
  }
  attr {
    key: "strides"
    value {
      list {
        i: 1
        i: 1
        i: 1
        i: 1
      }
    }
  }
  attr {
    key: "use_cudnn_on_gpu"
    value {
      b: true
    }
  }
}
node {
  name: "resnet_v1_50/block1/unit_1/bottleneck_v1/conv2/BatchNorm/gamma/Initializer/ones"
  op: "Const"
  attr {
    key: "_class"
    value {
      list {
        s: "loc:@resnet_v1_50/block1/unit_1/bottleneck_v1/conv2/BatchNorm/gamma"
      }
    }
  }
  attr {
    key: "dtype"
    value {
      type: DT_FLOAT
    }
  }
  attr {
    key: "value"
    value {
      tensor {
        dtype: DT_FLOAT
        tensor_shape {
          dim {
            size: 64
          }
        }
        float_val: 1.0
      }
    }
  }
}
node {
  name: "resnet_v1_50/block1/unit_1/bottleneck_v1/conv2/BatchNorm/gamma"
  op: "VariableV2"
  attr {
    key: "_class"
    value {
      list {
        s: "loc:@resnet_v1_50/block1/unit_1/bottleneck_v1/conv2/BatchNorm/gamma"
      }
    }
  }
  attr {
    key: "container"
    value {
      s: ""
    }
  }
  attr {
    key: "dtype"
    value {
      type: DT_FLOAT
    }
  }
  attr {
    key: "shape"
    value {
      shape {
        dim {
          size: 64
        }
      }
    }
  }
  attr {
    key: "shared_name"
    value {
      s: ""
    }
  }
}
node {
  name: "resnet_v1_50/block1/unit_1/bottleneck_v1/conv2/BatchNorm/gamma/Assign"
  op: "Assign"
  input: "resnet_v1_50/block1/unit_1/bottleneck_v1/conv2/BatchNorm/gamma"
  input: "resnet_v1_50/block1/unit_1/bottleneck_v1/conv2/BatchNorm/gamma/Initializer/ones"
  attr {
    key: "T"
    value {
      type: DT_FLOAT
    }
  }
  attr {
    key: "_class"
    value {
      list {
        s: "loc:@resnet_v1_50/block1/unit_1/bottleneck_v1/conv2/BatchNorm/gamma"
      }
    }
  }
  attr {
    key: "use_locking"
    value {
      b: true
    }
  }
  attr {
    key: "validate_shape"
    value {
      b: true
    }
  }
}
node {
  name: "resnet_v1_50/block1/unit_1/bottleneck_v1/conv2/BatchNorm/gamma/read"
  op: "Identity"
  input: "resnet_v1_50/block1/unit_1/bottleneck_v1/conv2/BatchNorm/gamma"
  attr {
    key: "T"
    value {
      type: DT_FLOAT
    }
  }
  attr {
    key: "_class"
    value {
      list {
        s: "loc:@resnet_v1_50/block1/unit_1/bottleneck_v1/conv2/BatchNorm/gamma"
      }
    }
  }
}
node {
  name: "resnet_v1_50/block1/unit_1/bottleneck_v1/conv2/BatchNorm/beta/Initializer/zeros"
  op: "Const"
  attr {
    key: "_class"
    value {
      list {
        s: "loc:@resnet_v1_50/block1/unit_1/bottleneck_v1/conv2/BatchNorm/beta"
      }
    }
  }
  attr {
    key: "dtype"
    value {
      type: DT_FLOAT
    }
  }
  attr {
    key: "value"
    value {
      tensor {
        dtype: DT_FLOAT
        tensor_shape {
          dim {
            size: 64
          }
        }
        float_val: 0.0
      }
    }
  }
}
node {
  name: "resnet_v1_50/block1/unit_1/bottleneck_v1/conv2/BatchNorm/beta"
  op: "VariableV2"
  attr {
    key: "_class"
    value {
      list {
        s: "loc:@resnet_v1_50/block1/unit_1/bottleneck_v1/conv2/BatchNorm/beta"
      }
    }
  }
  attr {
    key: "container"
    value {
      s: ""
    }
  }
  attr {
    key: "dtype"
    value {
      type: DT_FLOAT
    }
  }
  attr {
    key: "shape"
    value {
      shape {
        dim {
          size: 64
        }
      }
    }
  }
  attr {
    key: "shared_name"
    value {
      s: ""
    }
  }
}
node {
  name: "resnet_v1_50/block1/unit_1/bottleneck_v1/conv2/BatchNorm/beta/Assign"
  op: "Assign"
  input: "resnet_v1_50/block1/unit_1/bottleneck_v1/conv2/BatchNorm/beta"
  input: "resnet_v1_50/block1/unit_1/bottleneck_v1/conv2/BatchNorm/beta/Initializer/zeros"
  attr {
    key: "T"
    value {
      type: DT_FLOAT
    }
  }
  attr {
    key: "_class"
    value {
      list {
        s: "loc:@resnet_v1_50/block1/unit_1/bottleneck_v1/conv2/BatchNorm/beta"
      }
    }
  }
  attr {
    key: "use_locking"
    value {
      b: true
    }
  }
  attr {
    key: "validate_shape"
    value {
      b: true
    }
  }
}
node {
  name: "resnet_v1_50/block1/unit_1/bottleneck_v1/conv2/BatchNorm/beta/read"
  op: "Identity"
  input: "resnet_v1_50/block1/unit_1/bottleneck_v1/conv2/BatchNorm/beta"
  attr {
    key: "T"
    value {
      type: DT_FLOAT
    }
  }
  attr {
    key: "_class"
    value {
      list {
        s: "loc:@resnet_v1_50/block1/unit_1/bottleneck_v1/conv2/BatchNorm/beta"
      }
    }
  }
}
node {
  name: "resnet_v1_50/block1/unit_1/bottleneck_v1/conv2/BatchNorm/moving_mean/Initializer/zeros"
  op: "Const"
  attr {
    key: "_class"
    value {
      list {
        s: "loc:@resnet_v1_50/block1/unit_1/bottleneck_v1/conv2/BatchNorm/moving_mean"
      }
    }
  }
  attr {
    key: "dtype"
    value {
      type: DT_FLOAT
    }
  }
  attr {
    key: "value"
    value {
      tensor {
        dtype: DT_FLOAT
        tensor_shape {
          dim {
            size: 64
          }
        }
        float_val: 0.0
      }
    }
  }
}
node {
  name: "resnet_v1_50/block1/unit_1/bottleneck_v1/conv2/BatchNorm/moving_mean"
  op: "VariableV2"
  attr {
    key: "_class"
    value {
      list {
        s: "loc:@resnet_v1_50/block1/unit_1/bottleneck_v1/conv2/BatchNorm/moving_mean"
      }
    }
  }
  attr {
    key: "container"
    value {
      s: ""
    }
  }
  attr {
    key: "dtype"
    value {
      type: DT_FLOAT
    }
  }
  attr {
    key: "shape"
    value {
      shape {
        dim {
          size: 64
        }
      }
    }
  }
  attr {
    key: "shared_name"
    value {
      s: ""
    }
  }
}
node {
  name: "resnet_v1_50/block1/unit_1/bottleneck_v1/conv2/BatchNorm/moving_mean/Assign"
  op: "Assign"
  input: "resnet_v1_50/block1/unit_1/bottleneck_v1/conv2/BatchNorm/moving_mean"
  input: "resnet_v1_50/block1/unit_1/bottleneck_v1/conv2/BatchNorm/moving_mean/Initializer/zeros"
  attr {
    key: "T"
    value {
      type: DT_FLOAT
    }
  }
  attr {
    key: "_class"
    value {
      list {
        s: "loc:@resnet_v1_50/block1/unit_1/bottleneck_v1/conv2/BatchNorm/moving_mean"
      }
    }
  }
  attr {
    key: "use_locking"
    value {
      b: true
    }
  }
  attr {
    key: "validate_shape"
    value {
      b: true
    }
  }
}
node {
  name: "resnet_v1_50/block1/unit_1/bottleneck_v1/conv2/BatchNorm/moving_mean/read"
  op: "Identity"
  input: "resnet_v1_50/block1/unit_1/bottleneck_v1/conv2/BatchNorm/moving_mean"
  attr {
    key: "T"
    value {
      type: DT_FLOAT
    }
  }
  attr {
    key: "_class"
    value {
      list {
        s: "loc:@resnet_v1_50/block1/unit_1/bottleneck_v1/conv2/BatchNorm/moving_mean"
      }
    }
  }
}
node {
  name: "resnet_v1_50/block1/unit_1/bottleneck_v1/conv2/BatchNorm/moving_variance/Initializer/ones"
  op: "Const"
  attr {
    key: "_class"
    value {
      list {
        s: "loc:@resnet_v1_50/block1/unit_1/bottleneck_v1/conv2/BatchNorm/moving_variance"
      }
    }
  }
  attr {
    key: "dtype"
    value {
      type: DT_FLOAT
    }
  }
  attr {
    key: "value"
    value {
      tensor {
        dtype: DT_FLOAT
        tensor_shape {
          dim {
            size: 64
          }
        }
        float_val: 1.0
      }
    }
  }
}
node {
  name: "resnet_v1_50/block1/unit_1/bottleneck_v1/conv2/BatchNorm/moving_variance"
  op: "VariableV2"
  attr {
    key: "_class"
    value {
      list {
        s: "loc:@resnet_v1_50/block1/unit_1/bottleneck_v1/conv2/BatchNorm/moving_variance"
      }
    }
  }
  attr {
    key: "container"
    value {
      s: ""
    }
  }
  attr {
    key: "dtype"
    value {
      type: DT_FLOAT
    }
  }
  attr {
    key: "shape"
    value {
      shape {
        dim {
          size: 64
        }
      }
    }
  }
  attr {
    key: "shared_name"
    value {
      s: ""
    }
  }
}
node {
  name: "resnet_v1_50/block1/unit_1/bottleneck_v1/conv2/BatchNorm/moving_variance/Assign"
  op: "Assign"
  input: "resnet_v1_50/block1/unit_1/bottleneck_v1/conv2/BatchNorm/moving_variance"
  input: "resnet_v1_50/block1/unit_1/bottleneck_v1/conv2/BatchNorm/moving_variance/Initializer/ones"
  attr {
    key: "T"
    value {
      type: DT_FLOAT
    }
  }
  attr {
    key: "_class"
    value {
      list {
        s: "loc:@resnet_v1_50/block1/unit_1/bottleneck_v1/conv2/BatchNorm/moving_variance"
      }
    }
  }
  attr {
    key: "use_locking"
    value {
      b: true
    }
  }
  attr {
    key: "validate_shape"
    value {
      b: true
    }
  }
}
node {
  name: "resnet_v1_50/block1/unit_1/bottleneck_v1/conv2/BatchNorm/moving_variance/read"
  op: "Identity"
  input: "resnet_v1_50/block1/unit_1/bottleneck_v1/conv2/BatchNorm/moving_variance"
  attr {
    key: "T"
    value {
      type: DT_FLOAT
    }
  }
  attr {
    key: "_class"
    value {
      list {
        s: "loc:@resnet_v1_50/block1/unit_1/bottleneck_v1/conv2/BatchNorm/moving_variance"
      }
    }
  }
}
node {
  name: "resnet_v1_50/block1/unit_1/bottleneck_v1/conv2/BatchNorm/FusedBatchNorm"
  op: "FusedBatchNorm"
  input: "resnet_v1_50/block1/unit_1/bottleneck_v1/conv2/Conv2D"
  input: "resnet_v1_50/block1/unit_1/bottleneck_v1/conv2/BatchNorm/gamma/read"
  input: "resnet_v1_50/block1/unit_1/bottleneck_v1/conv2/BatchNorm/beta/read"
  input: "resnet_v1_50/block1/unit_1/bottleneck_v1/conv2/BatchNorm/moving_mean/read"
  input: "resnet_v1_50/block1/unit_1/bottleneck_v1/conv2/BatchNorm/moving_variance/read"
  attr {
    key: "T"
    value {
      type: DT_FLOAT
    }
  }
  attr {
    key: "data_format"
    value {
      s: "NHWC"
    }
  }
  attr {
    key: "epsilon"
    value {
      f: 1.0009999641624745e-05
    }
  }
  attr {
    key: "is_training"
    value {
      b: false
    }
  }
}
node {
  name: "resnet_v1_50/block1/unit_1/bottleneck_v1/conv2/BatchNorm/Const"
  op: "Const"
  attr {
    key: "dtype"
    value {
      type: DT_FLOAT
    }
  }
  attr {
    key: "value"
    value {
      tensor {
        dtype: DT_FLOAT
        tensor_shape {
        }
        float_val: 0.996999979019165
      }
    }
  }
}
node {
  name: "resnet_v1_50/block1/unit_1/bottleneck_v1/conv2/Relu"
  op: "Relu"
  input: "resnet_v1_50/block1/unit_1/bottleneck_v1/conv2/BatchNorm/FusedBatchNorm"
  attr {
    key: "T"
    value {
      type: DT_FLOAT
    }
  }
}
node {
  name: "resnet_v1_50/block1/unit_1/bottleneck_v1/conv3/weights/Initializer/truncated_normal/shape"
  op: "Const"
  attr {
    key: "_class"
    value {
      list {
        s: "loc:@resnet_v1_50/block1/unit_1/bottleneck_v1/conv3/weights"
      }
    }
  }
  attr {
    key: "dtype"
    value {
      type: DT_INT32
    }
  }
  attr {
    key: "value"
    value {
      tensor {
        dtype: DT_INT32
        tensor_shape {
          dim {
            size: 4
          }
        }
        tensor_content: "\001\000\000\000\001\000\000\000@\000\000\000\000\001\000\000"
      }
    }
  }
}
node {
  name: "resnet_v1_50/block1/unit_1/bottleneck_v1/conv3/weights/Initializer/truncated_normal/mean"
  op: "Const"
  attr {
    key: "_class"
    value {
      list {
        s: "loc:@resnet_v1_50/block1/unit_1/bottleneck_v1/conv3/weights"
      }
    }
  }
  attr {
    key: "dtype"
    value {
      type: DT_FLOAT
    }
  }
  attr {
    key: "value"
    value {
      tensor {
        dtype: DT_FLOAT
        tensor_shape {
        }
        float_val: 0.0
      }
    }
  }
}
node {
  name: "resnet_v1_50/block1/unit_1/bottleneck_v1/conv3/weights/Initializer/truncated_normal/stddev"
  op: "Const"
  attr {
    key: "_class"
    value {
      list {
        s: "loc:@resnet_v1_50/block1/unit_1/bottleneck_v1/conv3/weights"
      }
    }
  }
  attr {
    key: "dtype"
    value {
      type: DT_FLOAT
    }
  }
  attr {
    key: "value"
    value {
      tensor {
        dtype: DT_FLOAT
        tensor_shape {
        }
        float_val: 0.20155644416809082
      }
    }
  }
}
node {
  name: "resnet_v1_50/block1/unit_1/bottleneck_v1/conv3/weights/Initializer/truncated_normal/TruncatedNormal"
  op: "TruncatedNormal"
  input: "resnet_v1_50/block1/unit_1/bottleneck_v1/conv3/weights/Initializer/truncated_normal/shape"
  attr {
    key: "T"
    value {
      type: DT_INT32
    }
  }
  attr {
    key: "_class"
    value {
      list {
        s: "loc:@resnet_v1_50/block1/unit_1/bottleneck_v1/conv3/weights"
      }
    }
  }
  attr {
    key: "dtype"
    value {
      type: DT_FLOAT
    }
  }
  attr {
    key: "seed"
    value {
      i: 0
    }
  }
  attr {
    key: "seed2"
    value {
      i: 0
    }
  }
}
node {
  name: "resnet_v1_50/block1/unit_1/bottleneck_v1/conv3/weights/Initializer/truncated_normal/mul"
  op: "Mul"
  input: "resnet_v1_50/block1/unit_1/bottleneck_v1/conv3/weights/Initializer/truncated_normal/TruncatedNormal"
  input: "resnet_v1_50/block1/unit_1/bottleneck_v1/conv3/weights/Initializer/truncated_normal/stddev"
  attr {
    key: "T"
    value {
      type: DT_FLOAT
    }
  }
  attr {
    key: "_class"
    value {
      list {
        s: "loc:@resnet_v1_50/block1/unit_1/bottleneck_v1/conv3/weights"
      }
    }
  }
}
node {
  name: "resnet_v1_50/block1/unit_1/bottleneck_v1/conv3/weights/Initializer/truncated_normal"
  op: "Add"
  input: "resnet_v1_50/block1/unit_1/bottleneck_v1/conv3/weights/Initializer/truncated_normal/mul"
  input: "resnet_v1_50/block1/unit_1/bottleneck_v1/conv3/weights/Initializer/truncated_normal/mean"
  attr {
    key: "T"
    value {
      type: DT_FLOAT
    }
  }
  attr {
    key: "_class"
    value {
      list {
        s: "loc:@resnet_v1_50/block1/unit_1/bottleneck_v1/conv3/weights"
      }
    }
  }
}
node {
  name: "resnet_v1_50/block1/unit_1/bottleneck_v1/conv3/weights"
  op: "VariableV2"
  attr {
    key: "_class"
    value {
      list {
        s: "loc:@resnet_v1_50/block1/unit_1/bottleneck_v1/conv3/weights"
      }
    }
  }
  attr {
    key: "container"
    value {
      s: ""
    }
  }
  attr {
    key: "dtype"
    value {
      type: DT_FLOAT
    }
  }
  attr {
    key: "shape"
    value {
      shape {
        dim {
          size: 1
        }
        dim {
          size: 1
        }
        dim {
          size: 64
        }
        dim {
          size: 256
        }
      }
    }
  }
  attr {
    key: "shared_name"
    value {
      s: ""
    }
  }
}
node {
  name: "resnet_v1_50/block1/unit_1/bottleneck_v1/conv3/weights/Assign"
  op: "Assign"
  input: "resnet_v1_50/block1/unit_1/bottleneck_v1/conv3/weights"
  input: "resnet_v1_50/block1/unit_1/bottleneck_v1/conv3/weights/Initializer/truncated_normal"
  attr {
    key: "T"
    value {
      type: DT_FLOAT
    }
  }
  attr {
    key: "_class"
    value {
      list {
        s: "loc:@resnet_v1_50/block1/unit_1/bottleneck_v1/conv3/weights"
      }
    }
  }
  attr {
    key: "use_locking"
    value {
      b: true
    }
  }
  attr {
    key: "validate_shape"
    value {
      b: true
    }
  }
}
node {
  name: "resnet_v1_50/block1/unit_1/bottleneck_v1/conv3/weights/read"
  op: "Identity"
  input: "resnet_v1_50/block1/unit_1/bottleneck_v1/conv3/weights"
  attr {
    key: "T"
    value {
      type: DT_FLOAT
    }
  }
  attr {
    key: "_class"
    value {
      list {
        s: "loc:@resnet_v1_50/block1/unit_1/bottleneck_v1/conv3/weights"
      }
    }
  }
}
node {
  name: "resnet_v1_50/block1/unit_1/bottleneck_v1/conv3/kernel/Regularizer/l2_regularizer/scale"
  op: "Const"
  attr {
    key: "dtype"
    value {
      type: DT_FLOAT
    }
  }
  attr {
    key: "value"
    value {
      tensor {
        dtype: DT_FLOAT
        tensor_shape {
        }
        float_val: 9.999999747378752e-05
      }
    }
  }
}
node {
  name: "resnet_v1_50/block1/unit_1/bottleneck_v1/conv3/kernel/Regularizer/l2_regularizer/L2Loss"
  op: "L2Loss"
  input: "resnet_v1_50/block1/unit_1/bottleneck_v1/conv3/weights/read"
  attr {
    key: "T"
    value {
      type: DT_FLOAT
    }
  }
}
node {
  name: "resnet_v1_50/block1/unit_1/bottleneck_v1/conv3/kernel/Regularizer/l2_regularizer"
  op: "Mul"
  input: "resnet_v1_50/block1/unit_1/bottleneck_v1/conv3/kernel/Regularizer/l2_regularizer/scale"
  input: "resnet_v1_50/block1/unit_1/bottleneck_v1/conv3/kernel/Regularizer/l2_regularizer/L2Loss"
  attr {
    key: "T"
    value {
      type: DT_FLOAT
    }
  }
}
node {
  name: "resnet_v1_50/block1/unit_1/bottleneck_v1/conv3/dilation_rate"
  op: "Const"
  attr {
    key: "dtype"
    value {
      type: DT_INT32
    }
  }
  attr {
    key: "value"
    value {
      tensor {
        dtype: DT_INT32
        tensor_shape {
          dim {
            size: 2
          }
        }
        tensor_content: "\001\000\000\000\001\000\000\000"
      }
    }
  }
}
node {
  name: "resnet_v1_50/block1/unit_1/bottleneck_v1/conv3/Conv2D"
  op: "Conv2D"
  input: "resnet_v1_50/block1/unit_1/bottleneck_v1/conv2/Relu"
  input: "resnet_v1_50/block1/unit_1/bottleneck_v1/conv3/weights/read"
  attr {
    key: "T"
    value {
      type: DT_FLOAT
    }
  }
  attr {
    key: "data_format"
    value {
      s: "NHWC"
    }
  }
  attr {
    key: "dilations"
    value {
      list {
        i: 1
        i: 1
        i: 1
        i: 1
      }
    }
  }
  attr {
    key: "explicit_paddings"
    value {
      list {
      }
    }
  }
  attr {
    key: "padding"
    value {
      s: "SAME"
    }
  }
  attr {
    key: "strides"
    value {
      list {
        i: 1
        i: 1
        i: 1
        i: 1
      }
    }
  }
  attr {
    key: "use_cudnn_on_gpu"
    value {
      b: true
    }
  }
}
node {
  name: "resnet_v1_50/block1/unit_1/bottleneck_v1/conv3/BatchNorm/gamma/Initializer/ones"
  op: "Const"
  attr {
    key: "_class"
    value {
      list {
        s: "loc:@resnet_v1_50/block1/unit_1/bottleneck_v1/conv3/BatchNorm/gamma"
      }
    }
  }
  attr {
    key: "dtype"
    value {
      type: DT_FLOAT
    }
  }
  attr {
    key: "value"
    value {
      tensor {
        dtype: DT_FLOAT
        tensor_shape {
          dim {
            size: 256
          }
        }
        float_val: 1.0
      }
    }
  }
}
node {
  name: "resnet_v1_50/block1/unit_1/bottleneck_v1/conv3/BatchNorm/gamma"
  op: "VariableV2"
  attr {
    key: "_class"
    value {
      list {
        s: "loc:@resnet_v1_50/block1/unit_1/bottleneck_v1/conv3/BatchNorm/gamma"
      }
    }
  }
  attr {
    key: "container"
    value {
      s: ""
    }
  }
  attr {
    key: "dtype"
    value {
      type: DT_FLOAT
    }
  }
  attr {
    key: "shape"
    value {
      shape {
        dim {
          size: 256
        }
      }
    }
  }
  attr {
    key: "shared_name"
    value {
      s: ""
    }
  }
}
node {
  name: "resnet_v1_50/block1/unit_1/bottleneck_v1/conv3/BatchNorm/gamma/Assign"
  op: "Assign"
  input: "resnet_v1_50/block1/unit_1/bottleneck_v1/conv3/BatchNorm/gamma"
  input: "resnet_v1_50/block1/unit_1/bottleneck_v1/conv3/BatchNorm/gamma/Initializer/ones"
  attr {
    key: "T"
    value {
      type: DT_FLOAT
    }
  }
  attr {
    key: "_class"
    value {
      list {
        s: "loc:@resnet_v1_50/block1/unit_1/bottleneck_v1/conv3/BatchNorm/gamma"
      }
    }
  }
  attr {
    key: "use_locking"
    value {
      b: true
    }
  }
  attr {
    key: "validate_shape"
    value {
      b: true
    }
  }
}
node {
  name: "resnet_v1_50/block1/unit_1/bottleneck_v1/conv3/BatchNorm/gamma/read"
  op: "Identity"
  input: "resnet_v1_50/block1/unit_1/bottleneck_v1/conv3/BatchNorm/gamma"
  attr {
    key: "T"
    value {
      type: DT_FLOAT
    }
  }
  attr {
    key: "_class"
    value {
      list {
        s: "loc:@resnet_v1_50/block1/unit_1/bottleneck_v1/conv3/BatchNorm/gamma"
      }
    }
  }
}
node {
  name: "resnet_v1_50/block1/unit_1/bottleneck_v1/conv3/BatchNorm/beta/Initializer/zeros"
  op: "Const"
  attr {
    key: "_class"
    value {
      list {
        s: "loc:@resnet_v1_50/block1/unit_1/bottleneck_v1/conv3/BatchNorm/beta"
      }
    }
  }
  attr {
    key: "dtype"
    value {
      type: DT_FLOAT
    }
  }
  attr {
    key: "value"
    value {
      tensor {
        dtype: DT_FLOAT
        tensor_shape {
          dim {
            size: 256
          }
        }
        float_val: 0.0
      }
    }
  }
}
node {
  name: "resnet_v1_50/block1/unit_1/bottleneck_v1/conv3/BatchNorm/beta"
  op: "VariableV2"
  attr {
    key: "_class"
    value {
      list {
        s: "loc:@resnet_v1_50/block1/unit_1/bottleneck_v1/conv3/BatchNorm/beta"
      }
    }
  }
  attr {
    key: "container"
    value {
      s: ""
    }
  }
  attr {
    key: "dtype"
    value {
      type: DT_FLOAT
    }
  }
  attr {
    key: "shape"
    value {
      shape {
        dim {
          size: 256
        }
      }
    }
  }
  attr {
    key: "shared_name"
    value {
      s: ""
    }
  }
}
node {
  name: "resnet_v1_50/block1/unit_1/bottleneck_v1/conv3/BatchNorm/beta/Assign"
  op: "Assign"
  input: "resnet_v1_50/block1/unit_1/bottleneck_v1/conv3/BatchNorm/beta"
  input: "resnet_v1_50/block1/unit_1/bottleneck_v1/conv3/BatchNorm/beta/Initializer/zeros"
  attr {
    key: "T"
    value {
      type: DT_FLOAT
    }
  }
  attr {
    key: "_class"
    value {
      list {
        s: "loc:@resnet_v1_50/block1/unit_1/bottleneck_v1/conv3/BatchNorm/beta"
      }
    }
  }
  attr {
    key: "use_locking"
    value {
      b: true
    }
  }
  attr {
    key: "validate_shape"
    value {
      b: true
    }
  }
}
node {
  name: "resnet_v1_50/block1/unit_1/bottleneck_v1/conv3/BatchNorm/beta/read"
  op: "Identity"
  input: "resnet_v1_50/block1/unit_1/bottleneck_v1/conv3/BatchNorm/beta"
  attr {
    key: "T"
    value {
      type: DT_FLOAT
    }
  }
  attr {
    key: "_class"
    value {
      list {
        s: "loc:@resnet_v1_50/block1/unit_1/bottleneck_v1/conv3/BatchNorm/beta"
      }
    }
  }
}
node {
  name: "resnet_v1_50/block1/unit_1/bottleneck_v1/conv3/BatchNorm/moving_mean/Initializer/zeros"
  op: "Const"
  attr {
    key: "_class"
    value {
      list {
        s: "loc:@resnet_v1_50/block1/unit_1/bottleneck_v1/conv3/BatchNorm/moving_mean"
      }
    }
  }
  attr {
    key: "dtype"
    value {
      type: DT_FLOAT
    }
  }
  attr {
    key: "value"
    value {
      tensor {
        dtype: DT_FLOAT
        tensor_shape {
          dim {
            size: 256
          }
        }
        float_val: 0.0
      }
    }
  }
}
node {
  name: "resnet_v1_50/block1/unit_1/bottleneck_v1/conv3/BatchNorm/moving_mean"
  op: "VariableV2"
  attr {
    key: "_class"
    value {
      list {
        s: "loc:@resnet_v1_50/block1/unit_1/bottleneck_v1/conv3/BatchNorm/moving_mean"
      }
    }
  }
  attr {
    key: "container"
    value {
      s: ""
    }
  }
  attr {
    key: "dtype"
    value {
      type: DT_FLOAT
    }
  }
  attr {
    key: "shape"
    value {
      shape {
        dim {
          size: 256
        }
      }
    }
  }
  attr {
    key: "shared_name"
    value {
      s: ""
    }
  }
}
node {
  name: "resnet_v1_50/block1/unit_1/bottleneck_v1/conv3/BatchNorm/moving_mean/Assign"
  op: "Assign"
  input: "resnet_v1_50/block1/unit_1/bottleneck_v1/conv3/BatchNorm/moving_mean"
  input: "resnet_v1_50/block1/unit_1/bottleneck_v1/conv3/BatchNorm/moving_mean/Initializer/zeros"
  attr {
    key: "T"
    value {
      type: DT_FLOAT
    }
  }
  attr {
    key: "_class"
    value {
      list {
        s: "loc:@resnet_v1_50/block1/unit_1/bottleneck_v1/conv3/BatchNorm/moving_mean"
      }
    }
  }
  attr {
    key: "use_locking"
    value {
      b: true
    }
  }
  attr {
    key: "validate_shape"
    value {
      b: true
    }
  }
}
node {
  name: "resnet_v1_50/block1/unit_1/bottleneck_v1/conv3/BatchNorm/moving_mean/read"
  op: "Identity"
  input: "resnet_v1_50/block1/unit_1/bottleneck_v1/conv3/BatchNorm/moving_mean"
  attr {
    key: "T"
    value {
      type: DT_FLOAT
    }
  }
  attr {
    key: "_class"
    value {
      list {
        s: "loc:@resnet_v1_50/block1/unit_1/bottleneck_v1/conv3/BatchNorm/moving_mean"
      }
    }
  }
}
node {
  name: "resnet_v1_50/block1/unit_1/bottleneck_v1/conv3/BatchNorm/moving_variance/Initializer/ones"
  op: "Const"
  attr {
    key: "_class"
    value {
      list {
        s: "loc:@resnet_v1_50/block1/unit_1/bottleneck_v1/conv3/BatchNorm/moving_variance"
      }
    }
  }
  attr {
    key: "dtype"
    value {
      type: DT_FLOAT
    }
  }
  attr {
    key: "value"
    value {
      tensor {
        dtype: DT_FLOAT
        tensor_shape {
          dim {
            size: 256
          }
        }
        float_val: 1.0
      }
    }
  }
}
node {
  name: "resnet_v1_50/block1/unit_1/bottleneck_v1/conv3/BatchNorm/moving_variance"
  op: "VariableV2"
  attr {
    key: "_class"
    value {
      list {
        s: "loc:@resnet_v1_50/block1/unit_1/bottleneck_v1/conv3/BatchNorm/moving_variance"
      }
    }
  }
  attr {
    key: "container"
    value {
      s: ""
    }
  }
  attr {
    key: "dtype"
    value {
      type: DT_FLOAT
    }
  }
  attr {
    key: "shape"
    value {
      shape {
        dim {
          size: 256
        }
      }
    }
  }
  attr {
    key: "shared_name"
    value {
      s: ""
    }
  }
}
node {
  name: "resnet_v1_50/block1/unit_1/bottleneck_v1/conv3/BatchNorm/moving_variance/Assign"
  op: "Assign"
  input: "resnet_v1_50/block1/unit_1/bottleneck_v1/conv3/BatchNorm/moving_variance"
  input: "resnet_v1_50/block1/unit_1/bottleneck_v1/conv3/BatchNorm/moving_variance/Initializer/ones"
  attr {
    key: "T"
    value {
      type: DT_FLOAT
    }
  }
  attr {
    key: "_class"
    value {
      list {
        s: "loc:@resnet_v1_50/block1/unit_1/bottleneck_v1/conv3/BatchNorm/moving_variance"
      }
    }
  }
  attr {
    key: "use_locking"
    value {
      b: true
    }
  }
  attr {
    key: "validate_shape"
    value {
      b: true
    }
  }
}
node {
  name: "resnet_v1_50/block1/unit_1/bottleneck_v1/conv3/BatchNorm/moving_variance/read"
  op: "Identity"
  input: "resnet_v1_50/block1/unit_1/bottleneck_v1/conv3/BatchNorm/moving_variance"
  attr {
    key: "T"
    value {
      type: DT_FLOAT
    }
  }
  attr {
    key: "_class"
    value {
      list {
        s: "loc:@resnet_v1_50/block1/unit_1/bottleneck_v1/conv3/BatchNorm/moving_variance"
      }
    }
  }
}
node {
  name: "resnet_v1_50/block1/unit_1/bottleneck_v1/conv3/BatchNorm/FusedBatchNorm"
  op: "FusedBatchNorm"
  input: "resnet_v1_50/block1/unit_1/bottleneck_v1/conv3/Conv2D"
  input: "resnet_v1_50/block1/unit_1/bottleneck_v1/conv3/BatchNorm/gamma/read"
  input: "resnet_v1_50/block1/unit_1/bottleneck_v1/conv3/BatchNorm/beta/read"
  input: "resnet_v1_50/block1/unit_1/bottleneck_v1/conv3/BatchNorm/moving_mean/read"
  input: "resnet_v1_50/block1/unit_1/bottleneck_v1/conv3/BatchNorm/moving_variance/read"
  attr {
    key: "T"
    value {
      type: DT_FLOAT
    }
  }
  attr {
    key: "data_format"
    value {
      s: "NHWC"
    }
  }
  attr {
    key: "epsilon"
    value {
      f: 1.0009999641624745e-05
    }
  }
  attr {
    key: "is_training"
    value {
      b: false
    }
  }
}
node {
  name: "resnet_v1_50/block1/unit_1/bottleneck_v1/conv3/BatchNorm/Const"
  op: "Const"
  attr {
    key: "dtype"
    value {
      type: DT_FLOAT
    }
  }
  attr {
    key: "value"
    value {
      tensor {
        dtype: DT_FLOAT
        tensor_shape {
        }
        float_val: 0.996999979019165
      }
    }
  }
}
node {
  name: "resnet_v1_50/block1/unit_1/bottleneck_v1/add"
  op: "Add"
  input: "resnet_v1_50/block1/unit_1/bottleneck_v1/shortcut/BatchNorm/FusedBatchNorm"
  input: "resnet_v1_50/block1/unit_1/bottleneck_v1/conv3/BatchNorm/FusedBatchNorm"
  attr {
    key: "T"
    value {
      type: DT_FLOAT
    }
  }
}
node {
  name: "resnet_v1_50/block1/unit_1/bottleneck_v1/Relu"
  op: "Relu"
  input: "resnet_v1_50/block1/unit_1/bottleneck_v1/add"
  attr {
    key: "T"
    value {
      type: DT_FLOAT
    }
  }
}
node {
  name: "resnet_v1_50/block1/unit_2/bottleneck_v1/conv1/weights/Initializer/truncated_normal/shape"
  op: "Const"
  attr {
    key: "_class"
    value {
      list {
        s: "loc:@resnet_v1_50/block1/unit_2/bottleneck_v1/conv1/weights"
      }
    }
  }
  attr {
    key: "dtype"
    value {
      type: DT_INT32
    }
  }
  attr {
    key: "value"
    value {
      tensor {
        dtype: DT_INT32
        tensor_shape {
          dim {
            size: 4
          }
        }
        tensor_content: "\001\000\000\000\001\000\000\000\000\001\000\000@\000\000\000"
      }
    }
  }
}
node {
  name: "resnet_v1_50/block1/unit_2/bottleneck_v1/conv1/weights/Initializer/truncated_normal/mean"
  op: "Const"
  attr {
    key: "_class"
    value {
      list {
        s: "loc:@resnet_v1_50/block1/unit_2/bottleneck_v1/conv1/weights"
      }
    }
  }
  attr {
    key: "dtype"
    value {
      type: DT_FLOAT
    }
  }
  attr {
    key: "value"
    value {
      tensor {
        dtype: DT_FLOAT
        tensor_shape {
        }
        float_val: 0.0
      }
    }
  }
}
node {
  name: "resnet_v1_50/block1/unit_2/bottleneck_v1/conv1/weights/Initializer/truncated_normal/stddev"
  op: "Const"
  attr {
    key: "_class"
    value {
      list {
        s: "loc:@resnet_v1_50/block1/unit_2/bottleneck_v1/conv1/weights"
      }
    }
  }
  attr {
    key: "dtype"
    value {
      type: DT_FLOAT
    }
  }
  attr {
    key: "value"
    value {
      tensor {
        dtype: DT_FLOAT
        tensor_shape {
        }
        float_val: 0.10077822208404541
      }
    }
  }
}
node {
  name: "resnet_v1_50/block1/unit_2/bottleneck_v1/conv1/weights/Initializer/truncated_normal/TruncatedNormal"
  op: "TruncatedNormal"
  input: "resnet_v1_50/block1/unit_2/bottleneck_v1/conv1/weights/Initializer/truncated_normal/shape"
  attr {
    key: "T"
    value {
      type: DT_INT32
    }
  }
  attr {
    key: "_class"
    value {
      list {
        s: "loc:@resnet_v1_50/block1/unit_2/bottleneck_v1/conv1/weights"
      }
    }
  }
  attr {
    key: "dtype"
    value {
      type: DT_FLOAT
    }
  }
  attr {
    key: "seed"
    value {
      i: 0
    }
  }
  attr {
    key: "seed2"
    value {
      i: 0
    }
  }
}
node {
  name: "resnet_v1_50/block1/unit_2/bottleneck_v1/conv1/weights/Initializer/truncated_normal/mul"
  op: "Mul"
  input: "resnet_v1_50/block1/unit_2/bottleneck_v1/conv1/weights/Initializer/truncated_normal/TruncatedNormal"
  input: "resnet_v1_50/block1/unit_2/bottleneck_v1/conv1/weights/Initializer/truncated_normal/stddev"
  attr {
    key: "T"
    value {
      type: DT_FLOAT
    }
  }
  attr {
    key: "_class"
    value {
      list {
        s: "loc:@resnet_v1_50/block1/unit_2/bottleneck_v1/conv1/weights"
      }
    }
  }
}
node {
  name: "resnet_v1_50/block1/unit_2/bottleneck_v1/conv1/weights/Initializer/truncated_normal"
  op: "Add"
  input: "resnet_v1_50/block1/unit_2/bottleneck_v1/conv1/weights/Initializer/truncated_normal/mul"
  input: "resnet_v1_50/block1/unit_2/bottleneck_v1/conv1/weights/Initializer/truncated_normal/mean"
  attr {
    key: "T"
    value {
      type: DT_FLOAT
    }
  }
  attr {
    key: "_class"
    value {
      list {
        s: "loc:@resnet_v1_50/block1/unit_2/bottleneck_v1/conv1/weights"
      }
    }
  }
}
node {
  name: "resnet_v1_50/block1/unit_2/bottleneck_v1/conv1/weights"
  op: "VariableV2"
  attr {
    key: "_class"
    value {
      list {
        s: "loc:@resnet_v1_50/block1/unit_2/bottleneck_v1/conv1/weights"
      }
    }
  }
  attr {
    key: "container"
    value {
      s: ""
    }
  }
  attr {
    key: "dtype"
    value {
      type: DT_FLOAT
    }
  }
  attr {
    key: "shape"
    value {
      shape {
        dim {
          size: 1
        }
        dim {
          size: 1
        }
        dim {
          size: 256
        }
        dim {
          size: 64
        }
      }
    }
  }
  attr {
    key: "shared_name"
    value {
      s: ""
    }
  }
}
node {
  name: "resnet_v1_50/block1/unit_2/bottleneck_v1/conv1/weights/Assign"
  op: "Assign"
  input: "resnet_v1_50/block1/unit_2/bottleneck_v1/conv1/weights"
  input: "resnet_v1_50/block1/unit_2/bottleneck_v1/conv1/weights/Initializer/truncated_normal"
  attr {
    key: "T"
    value {
      type: DT_FLOAT
    }
  }
  attr {
    key: "_class"
    value {
      list {
        s: "loc:@resnet_v1_50/block1/unit_2/bottleneck_v1/conv1/weights"
      }
    }
  }
  attr {
    key: "use_locking"
    value {
      b: true
    }
  }
  attr {
    key: "validate_shape"
    value {
      b: true
    }
  }
}
node {
  name: "resnet_v1_50/block1/unit_2/bottleneck_v1/conv1/weights/read"
  op: "Identity"
  input: "resnet_v1_50/block1/unit_2/bottleneck_v1/conv1/weights"
  attr {
    key: "T"
    value {
      type: DT_FLOAT
    }
  }
  attr {
    key: "_class"
    value {
      list {
        s: "loc:@resnet_v1_50/block1/unit_2/bottleneck_v1/conv1/weights"
      }
    }
  }
}
node {
  name: "resnet_v1_50/block1/unit_2/bottleneck_v1/conv1/kernel/Regularizer/l2_regularizer/scale"
  op: "Const"
  attr {
    key: "dtype"
    value {
      type: DT_FLOAT
    }
  }
  attr {
    key: "value"
    value {
      tensor {
        dtype: DT_FLOAT
        tensor_shape {
        }
        float_val: 9.999999747378752e-05
      }
    }
  }
}
node {
  name: "resnet_v1_50/block1/unit_2/bottleneck_v1/conv1/kernel/Regularizer/l2_regularizer/L2Loss"
  op: "L2Loss"
  input: "resnet_v1_50/block1/unit_2/bottleneck_v1/conv1/weights/read"
  attr {
    key: "T"
    value {
      type: DT_FLOAT
    }
  }
}
node {
  name: "resnet_v1_50/block1/unit_2/bottleneck_v1/conv1/kernel/Regularizer/l2_regularizer"
  op: "Mul"
  input: "resnet_v1_50/block1/unit_2/bottleneck_v1/conv1/kernel/Regularizer/l2_regularizer/scale"
  input: "resnet_v1_50/block1/unit_2/bottleneck_v1/conv1/kernel/Regularizer/l2_regularizer/L2Loss"
  attr {
    key: "T"
    value {
      type: DT_FLOAT
    }
  }
}
node {
  name: "resnet_v1_50/block1/unit_2/bottleneck_v1/conv1/dilation_rate"
  op: "Const"
  attr {
    key: "dtype"
    value {
      type: DT_INT32
    }
  }
  attr {
    key: "value"
    value {
      tensor {
        dtype: DT_INT32
        tensor_shape {
          dim {
            size: 2
          }
        }
        tensor_content: "\001\000\000\000\001\000\000\000"
      }
    }
  }
}
node {
  name: "resnet_v1_50/block1/unit_2/bottleneck_v1/conv1/Conv2D"
  op: "Conv2D"
  input: "resnet_v1_50/block1/unit_1/bottleneck_v1/Relu"
  input: "resnet_v1_50/block1/unit_2/bottleneck_v1/conv1/weights/read"
  attr {
    key: "T"
    value {
      type: DT_FLOAT
    }
  }
  attr {
    key: "data_format"
    value {
      s: "NHWC"
    }
  }
  attr {
    key: "dilations"
    value {
      list {
        i: 1
        i: 1
        i: 1
        i: 1
      }
    }
  }
  attr {
    key: "explicit_paddings"
    value {
      list {
      }
    }
  }
  attr {
    key: "padding"
    value {
      s: "SAME"
    }
  }
  attr {
    key: "strides"
    value {
      list {
        i: 1
        i: 1
        i: 1
        i: 1
      }
    }
  }
  attr {
    key: "use_cudnn_on_gpu"
    value {
      b: true
    }
  }
}
node {
  name: "resnet_v1_50/block1/unit_2/bottleneck_v1/conv1/BatchNorm/gamma/Initializer/ones"
  op: "Const"
  attr {
    key: "_class"
    value {
      list {
        s: "loc:@resnet_v1_50/block1/unit_2/bottleneck_v1/conv1/BatchNorm/gamma"
      }
    }
  }
  attr {
    key: "dtype"
    value {
      type: DT_FLOAT
    }
  }
  attr {
    key: "value"
    value {
      tensor {
        dtype: DT_FLOAT
        tensor_shape {
          dim {
            size: 64
          }
        }
        float_val: 1.0
      }
    }
  }
}
node {
  name: "resnet_v1_50/block1/unit_2/bottleneck_v1/conv1/BatchNorm/gamma"
  op: "VariableV2"
  attr {
    key: "_class"
    value {
      list {
        s: "loc:@resnet_v1_50/block1/unit_2/bottleneck_v1/conv1/BatchNorm/gamma"
      }
    }
  }
  attr {
    key: "container"
    value {
      s: ""
    }
  }
  attr {
    key: "dtype"
    value {
      type: DT_FLOAT
    }
  }
  attr {
    key: "shape"
    value {
      shape {
        dim {
          size: 64
        }
      }
    }
  }
  attr {
    key: "shared_name"
    value {
      s: ""
    }
  }
}
node {
  name: "resnet_v1_50/block1/unit_2/bottleneck_v1/conv1/BatchNorm/gamma/Assign"
  op: "Assign"
  input: "resnet_v1_50/block1/unit_2/bottleneck_v1/conv1/BatchNorm/gamma"
  input: "resnet_v1_50/block1/unit_2/bottleneck_v1/conv1/BatchNorm/gamma/Initializer/ones"
  attr {
    key: "T"
    value {
      type: DT_FLOAT
    }
  }
  attr {
    key: "_class"
    value {
      list {
        s: "loc:@resnet_v1_50/block1/unit_2/bottleneck_v1/conv1/BatchNorm/gamma"
      }
    }
  }
  attr {
    key: "use_locking"
    value {
      b: true
    }
  }
  attr {
    key: "validate_shape"
    value {
      b: true
    }
  }
}
node {
  name: "resnet_v1_50/block1/unit_2/bottleneck_v1/conv1/BatchNorm/gamma/read"
  op: "Identity"
  input: "resnet_v1_50/block1/unit_2/bottleneck_v1/conv1/BatchNorm/gamma"
  attr {
    key: "T"
    value {
      type: DT_FLOAT
    }
  }
  attr {
    key: "_class"
    value {
      list {
        s: "loc:@resnet_v1_50/block1/unit_2/bottleneck_v1/conv1/BatchNorm/gamma"
      }
    }
  }
}
node {
  name: "resnet_v1_50/block1/unit_2/bottleneck_v1/conv1/BatchNorm/beta/Initializer/zeros"
  op: "Const"
  attr {
    key: "_class"
    value {
      list {
        s: "loc:@resnet_v1_50/block1/unit_2/bottleneck_v1/conv1/BatchNorm/beta"
      }
    }
  }
  attr {
    key: "dtype"
    value {
      type: DT_FLOAT
    }
  }
  attr {
    key: "value"
    value {
      tensor {
        dtype: DT_FLOAT
        tensor_shape {
          dim {
            size: 64
          }
        }
        float_val: 0.0
      }
    }
  }
}
node {
  name: "resnet_v1_50/block1/unit_2/bottleneck_v1/conv1/BatchNorm/beta"
  op: "VariableV2"
  attr {
    key: "_class"
    value {
      list {
        s: "loc:@resnet_v1_50/block1/unit_2/bottleneck_v1/conv1/BatchNorm/beta"
      }
    }
  }
  attr {
    key: "container"
    value {
      s: ""
    }
  }
  attr {
    key: "dtype"
    value {
      type: DT_FLOAT
    }
  }
  attr {
    key: "shape"
    value {
      shape {
        dim {
          size: 64
        }
      }
    }
  }
  attr {
    key: "shared_name"
    value {
      s: ""
    }
  }
}
node {
  name: "resnet_v1_50/block1/unit_2/bottleneck_v1/conv1/BatchNorm/beta/Assign"
  op: "Assign"
  input: "resnet_v1_50/block1/unit_2/bottleneck_v1/conv1/BatchNorm/beta"
  input: "resnet_v1_50/block1/unit_2/bottleneck_v1/conv1/BatchNorm/beta/Initializer/zeros"
  attr {
    key: "T"
    value {
      type: DT_FLOAT
    }
  }
  attr {
    key: "_class"
    value {
      list {
        s: "loc:@resnet_v1_50/block1/unit_2/bottleneck_v1/conv1/BatchNorm/beta"
      }
    }
  }
  attr {
    key: "use_locking"
    value {
      b: true
    }
  }
  attr {
    key: "validate_shape"
    value {
      b: true
    }
  }
}
node {
  name: "resnet_v1_50/block1/unit_2/bottleneck_v1/conv1/BatchNorm/beta/read"
  op: "Identity"
  input: "resnet_v1_50/block1/unit_2/bottleneck_v1/conv1/BatchNorm/beta"
  attr {
    key: "T"
    value {
      type: DT_FLOAT
    }
  }
  attr {
    key: "_class"
    value {
      list {
        s: "loc:@resnet_v1_50/block1/unit_2/bottleneck_v1/conv1/BatchNorm/beta"
      }
    }
  }
}
node {
  name: "resnet_v1_50/block1/unit_2/bottleneck_v1/conv1/BatchNorm/moving_mean/Initializer/zeros"
  op: "Const"
  attr {
    key: "_class"
    value {
      list {
        s: "loc:@resnet_v1_50/block1/unit_2/bottleneck_v1/conv1/BatchNorm/moving_mean"
      }
    }
  }
  attr {
    key: "dtype"
    value {
      type: DT_FLOAT
    }
  }
  attr {
    key: "value"
    value {
      tensor {
        dtype: DT_FLOAT
        tensor_shape {
          dim {
            size: 64
          }
        }
        float_val: 0.0
      }
    }
  }
}
node {
  name: "resnet_v1_50/block1/unit_2/bottleneck_v1/conv1/BatchNorm/moving_mean"
  op: "VariableV2"
  attr {
    key: "_class"
    value {
      list {
        s: "loc:@resnet_v1_50/block1/unit_2/bottleneck_v1/conv1/BatchNorm/moving_mean"
      }
    }
  }
  attr {
    key: "container"
    value {
      s: ""
    }
  }
  attr {
    key: "dtype"
    value {
      type: DT_FLOAT
    }
  }
  attr {
    key: "shape"
    value {
      shape {
        dim {
          size: 64
        }
      }
    }
  }
  attr {
    key: "shared_name"
    value {
      s: ""
    }
  }
}
node {
  name: "resnet_v1_50/block1/unit_2/bottleneck_v1/conv1/BatchNorm/moving_mean/Assign"
  op: "Assign"
  input: "resnet_v1_50/block1/unit_2/bottleneck_v1/conv1/BatchNorm/moving_mean"
  input: "resnet_v1_50/block1/unit_2/bottleneck_v1/conv1/BatchNorm/moving_mean/Initializer/zeros"
  attr {
    key: "T"
    value {
      type: DT_FLOAT
    }
  }
  attr {
    key: "_class"
    value {
      list {
        s: "loc:@resnet_v1_50/block1/unit_2/bottleneck_v1/conv1/BatchNorm/moving_mean"
      }
    }
  }
  attr {
    key: "use_locking"
    value {
      b: true
    }
  }
  attr {
    key: "validate_shape"
    value {
      b: true
    }
  }
}
node {
  name: "resnet_v1_50/block1/unit_2/bottleneck_v1/conv1/BatchNorm/moving_mean/read"
  op: "Identity"
  input: "resnet_v1_50/block1/unit_2/bottleneck_v1/conv1/BatchNorm/moving_mean"
  attr {
    key: "T"
    value {
      type: DT_FLOAT
    }
  }
  attr {
    key: "_class"
    value {
      list {
        s: "loc:@resnet_v1_50/block1/unit_2/bottleneck_v1/conv1/BatchNorm/moving_mean"
      }
    }
  }
}
node {
  name: "resnet_v1_50/block1/unit_2/bottleneck_v1/conv1/BatchNorm/moving_variance/Initializer/ones"
  op: "Const"
  attr {
    key: "_class"
    value {
      list {
        s: "loc:@resnet_v1_50/block1/unit_2/bottleneck_v1/conv1/BatchNorm/moving_variance"
      }
    }
  }
  attr {
    key: "dtype"
    value {
      type: DT_FLOAT
    }
  }
  attr {
    key: "value"
    value {
      tensor {
        dtype: DT_FLOAT
        tensor_shape {
          dim {
            size: 64
          }
        }
        float_val: 1.0
      }
    }
  }
}
node {
  name: "resnet_v1_50/block1/unit_2/bottleneck_v1/conv1/BatchNorm/moving_variance"
  op: "VariableV2"
  attr {
    key: "_class"
    value {
      list {
        s: "loc:@resnet_v1_50/block1/unit_2/bottleneck_v1/conv1/BatchNorm/moving_variance"
      }
    }
  }
  attr {
    key: "container"
    value {
      s: ""
    }
  }
  attr {
    key: "dtype"
    value {
      type: DT_FLOAT
    }
  }
  attr {
    key: "shape"
    value {
      shape {
        dim {
          size: 64
        }
      }
    }
  }
  attr {
    key: "shared_name"
    value {
      s: ""
    }
  }
}
node {
  name: "resnet_v1_50/block1/unit_2/bottleneck_v1/conv1/BatchNorm/moving_variance/Assign"
  op: "Assign"
  input: "resnet_v1_50/block1/unit_2/bottleneck_v1/conv1/BatchNorm/moving_variance"
  input: "resnet_v1_50/block1/unit_2/bottleneck_v1/conv1/BatchNorm/moving_variance/Initializer/ones"
  attr {
    key: "T"
    value {
      type: DT_FLOAT
    }
  }
  attr {
    key: "_class"
    value {
      list {
        s: "loc:@resnet_v1_50/block1/unit_2/bottleneck_v1/conv1/BatchNorm/moving_variance"
      }
    }
  }
  attr {
    key: "use_locking"
    value {
      b: true
    }
  }
  attr {
    key: "validate_shape"
    value {
      b: true
    }
  }
}
node {
  name: "resnet_v1_50/block1/unit_2/bottleneck_v1/conv1/BatchNorm/moving_variance/read"
  op: "Identity"
  input: "resnet_v1_50/block1/unit_2/bottleneck_v1/conv1/BatchNorm/moving_variance"
  attr {
    key: "T"
    value {
      type: DT_FLOAT
    }
  }
  attr {
    key: "_class"
    value {
      list {
        s: "loc:@resnet_v1_50/block1/unit_2/bottleneck_v1/conv1/BatchNorm/moving_variance"
      }
    }
  }
}
node {
  name: "resnet_v1_50/block1/unit_2/bottleneck_v1/conv1/BatchNorm/FusedBatchNorm"
  op: "FusedBatchNorm"
  input: "resnet_v1_50/block1/unit_2/bottleneck_v1/conv1/Conv2D"
  input: "resnet_v1_50/block1/unit_2/bottleneck_v1/conv1/BatchNorm/gamma/read"
  input: "resnet_v1_50/block1/unit_2/bottleneck_v1/conv1/BatchNorm/beta/read"
  input: "resnet_v1_50/block1/unit_2/bottleneck_v1/conv1/BatchNorm/moving_mean/read"
  input: "resnet_v1_50/block1/unit_2/bottleneck_v1/conv1/BatchNorm/moving_variance/read"
  attr {
    key: "T"
    value {
      type: DT_FLOAT
    }
  }
  attr {
    key: "data_format"
    value {
      s: "NHWC"
    }
  }
  attr {
    key: "epsilon"
    value {
      f: 1.0009999641624745e-05
    }
  }
  attr {
    key: "is_training"
    value {
      b: false
    }
  }
}
node {
  name: "resnet_v1_50/block1/unit_2/bottleneck_v1/conv1/BatchNorm/Const"
  op: "Const"
  attr {
    key: "dtype"
    value {
      type: DT_FLOAT
    }
  }
  attr {
    key: "value"
    value {
      tensor {
        dtype: DT_FLOAT
        tensor_shape {
        }
        float_val: 0.996999979019165
      }
    }
  }
}
node {
  name: "resnet_v1_50/block1/unit_2/bottleneck_v1/conv1/Relu"
  op: "Relu"
  input: "resnet_v1_50/block1/unit_2/bottleneck_v1/conv1/BatchNorm/FusedBatchNorm"
  attr {
    key: "T"
    value {
      type: DT_FLOAT
    }
  }
}
node {
  name: "resnet_v1_50/block1/unit_2/bottleneck_v1/conv2/weights/Initializer/truncated_normal/shape"
  op: "Const"
  attr {
    key: "_class"
    value {
      list {
        s: "loc:@resnet_v1_50/block1/unit_2/bottleneck_v1/conv2/weights"
      }
    }
  }
  attr {
    key: "dtype"
    value {
      type: DT_INT32
    }
  }
  attr {
    key: "value"
    value {
      tensor {
        dtype: DT_INT32
        tensor_shape {
          dim {
            size: 4
          }
        }
        tensor_content: "\003\000\000\000\003\000\000\000@\000\000\000@\000\000\000"
      }
    }
  }
}
node {
  name: "resnet_v1_50/block1/unit_2/bottleneck_v1/conv2/weights/Initializer/truncated_normal/mean"
  op: "Const"
  attr {
    key: "_class"
    value {
      list {
        s: "loc:@resnet_v1_50/block1/unit_2/bottleneck_v1/conv2/weights"
      }
    }
  }
  attr {
    key: "dtype"
    value {
      type: DT_FLOAT
    }
  }
  attr {
    key: "value"
    value {
      tensor {
        dtype: DT_FLOAT
        tensor_shape {
        }
        float_val: 0.0
      }
    }
  }
}
node {
  name: "resnet_v1_50/block1/unit_2/bottleneck_v1/conv2/weights/Initializer/truncated_normal/stddev"
  op: "Const"
  attr {
    key: "_class"
    value {
      list {
        s: "loc:@resnet_v1_50/block1/unit_2/bottleneck_v1/conv2/weights"
      }
    }
  }
  attr {
    key: "dtype"
    value {
      type: DT_FLOAT
    }
  }
  attr {
    key: "value"
    value {
      tensor {
        dtype: DT_FLOAT
        tensor_shape {
        }
        float_val: 0.06718548387289047
      }
    }
  }
}
node {
  name: "resnet_v1_50/block1/unit_2/bottleneck_v1/conv2/weights/Initializer/truncated_normal/TruncatedNormal"
  op: "TruncatedNormal"
  input: "resnet_v1_50/block1/unit_2/bottleneck_v1/conv2/weights/Initializer/truncated_normal/shape"
  attr {
    key: "T"
    value {
      type: DT_INT32
    }
  }
  attr {
    key: "_class"
    value {
      list {
        s: "loc:@resnet_v1_50/block1/unit_2/bottleneck_v1/conv2/weights"
      }
    }
  }
  attr {
    key: "dtype"
    value {
      type: DT_FLOAT
    }
  }
  attr {
    key: "seed"
    value {
      i: 0
    }
  }
  attr {
    key: "seed2"
    value {
      i: 0
    }
  }
}
node {
  name: "resnet_v1_50/block1/unit_2/bottleneck_v1/conv2/weights/Initializer/truncated_normal/mul"
  op: "Mul"
  input: "resnet_v1_50/block1/unit_2/bottleneck_v1/conv2/weights/Initializer/truncated_normal/TruncatedNormal"
  input: "resnet_v1_50/block1/unit_2/bottleneck_v1/conv2/weights/Initializer/truncated_normal/stddev"
  attr {
    key: "T"
    value {
      type: DT_FLOAT
    }
  }
  attr {
    key: "_class"
    value {
      list {
        s: "loc:@resnet_v1_50/block1/unit_2/bottleneck_v1/conv2/weights"
      }
    }
  }
}
node {
  name: "resnet_v1_50/block1/unit_2/bottleneck_v1/conv2/weights/Initializer/truncated_normal"
  op: "Add"
  input: "resnet_v1_50/block1/unit_2/bottleneck_v1/conv2/weights/Initializer/truncated_normal/mul"
  input: "resnet_v1_50/block1/unit_2/bottleneck_v1/conv2/weights/Initializer/truncated_normal/mean"
  attr {
    key: "T"
    value {
      type: DT_FLOAT
    }
  }
  attr {
    key: "_class"
    value {
      list {
        s: "loc:@resnet_v1_50/block1/unit_2/bottleneck_v1/conv2/weights"
      }
    }
  }
}
node {
  name: "resnet_v1_50/block1/unit_2/bottleneck_v1/conv2/weights"
  op: "VariableV2"
  attr {
    key: "_class"
    value {
      list {
        s: "loc:@resnet_v1_50/block1/unit_2/bottleneck_v1/conv2/weights"
      }
    }
  }
  attr {
    key: "container"
    value {
      s: ""
    }
  }
  attr {
    key: "dtype"
    value {
      type: DT_FLOAT
    }
  }
  attr {
    key: "shape"
    value {
      shape {
        dim {
          size: 3
        }
        dim {
          size: 3
        }
        dim {
          size: 64
        }
        dim {
          size: 64
        }
      }
    }
  }
  attr {
    key: "shared_name"
    value {
      s: ""
    }
  }
}
node {
  name: "resnet_v1_50/block1/unit_2/bottleneck_v1/conv2/weights/Assign"
  op: "Assign"
  input: "resnet_v1_50/block1/unit_2/bottleneck_v1/conv2/weights"
  input: "resnet_v1_50/block1/unit_2/bottleneck_v1/conv2/weights/Initializer/truncated_normal"
  attr {
    key: "T"
    value {
      type: DT_FLOAT
    }
  }
  attr {
    key: "_class"
    value {
      list {
        s: "loc:@resnet_v1_50/block1/unit_2/bottleneck_v1/conv2/weights"
      }
    }
  }
  attr {
    key: "use_locking"
    value {
      b: true
    }
  }
  attr {
    key: "validate_shape"
    value {
      b: true
    }
  }
}
node {
  name: "resnet_v1_50/block1/unit_2/bottleneck_v1/conv2/weights/read"
  op: "Identity"
  input: "resnet_v1_50/block1/unit_2/bottleneck_v1/conv2/weights"
  attr {
    key: "T"
    value {
      type: DT_FLOAT
    }
  }
  attr {
    key: "_class"
    value {
      list {
        s: "loc:@resnet_v1_50/block1/unit_2/bottleneck_v1/conv2/weights"
      }
    }
  }
}
node {
  name: "resnet_v1_50/block1/unit_2/bottleneck_v1/conv2/kernel/Regularizer/l2_regularizer/scale"
  op: "Const"
  attr {
    key: "dtype"
    value {
      type: DT_FLOAT
    }
  }
  attr {
    key: "value"
    value {
      tensor {
        dtype: DT_FLOAT
        tensor_shape {
        }
        float_val: 9.999999747378752e-05
      }
    }
  }
}
node {
  name: "resnet_v1_50/block1/unit_2/bottleneck_v1/conv2/kernel/Regularizer/l2_regularizer/L2Loss"
  op: "L2Loss"
  input: "resnet_v1_50/block1/unit_2/bottleneck_v1/conv2/weights/read"
  attr {
    key: "T"
    value {
      type: DT_FLOAT
    }
  }
}
node {
  name: "resnet_v1_50/block1/unit_2/bottleneck_v1/conv2/kernel/Regularizer/l2_regularizer"
  op: "Mul"
  input: "resnet_v1_50/block1/unit_2/bottleneck_v1/conv2/kernel/Regularizer/l2_regularizer/scale"
  input: "resnet_v1_50/block1/unit_2/bottleneck_v1/conv2/kernel/Regularizer/l2_regularizer/L2Loss"
  attr {
    key: "T"
    value {
      type: DT_FLOAT
    }
  }
}
node {
  name: "resnet_v1_50/block1/unit_2/bottleneck_v1/conv2/dilation_rate"
  op: "Const"
  attr {
    key: "dtype"
    value {
      type: DT_INT32
    }
  }
  attr {
    key: "value"
    value {
      tensor {
        dtype: DT_INT32
        tensor_shape {
          dim {
            size: 2
          }
        }
        tensor_content: "\001\000\000\000\001\000\000\000"
      }
    }
  }
}
node {
  name: "resnet_v1_50/block1/unit_2/bottleneck_v1/conv2/Conv2D"
  op: "Conv2D"
  input: "resnet_v1_50/block1/unit_2/bottleneck_v1/conv1/Relu"
  input: "resnet_v1_50/block1/unit_2/bottleneck_v1/conv2/weights/read"
  attr {
    key: "T"
    value {
      type: DT_FLOAT
    }
  }
  attr {
    key: "data_format"
    value {
      s: "NHWC"
    }
  }
  attr {
    key: "dilations"
    value {
      list {
        i: 1
        i: 1
        i: 1
        i: 1
      }
    }
  }
  attr {
    key: "explicit_paddings"
    value {
      list {
      }
    }
  }
  attr {
    key: "padding"
    value {
      s: "SAME"
    }
  }
  attr {
    key: "strides"
    value {
      list {
        i: 1
        i: 1
        i: 1
        i: 1
      }
    }
  }
  attr {
    key: "use_cudnn_on_gpu"
    value {
      b: true
    }
  }
}
node {
  name: "resnet_v1_50/block1/unit_2/bottleneck_v1/conv2/BatchNorm/gamma/Initializer/ones"
  op: "Const"
  attr {
    key: "_class"
    value {
      list {
        s: "loc:@resnet_v1_50/block1/unit_2/bottleneck_v1/conv2/BatchNorm/gamma"
      }
    }
  }
  attr {
    key: "dtype"
    value {
      type: DT_FLOAT
    }
  }
  attr {
    key: "value"
    value {
      tensor {
        dtype: DT_FLOAT
        tensor_shape {
          dim {
            size: 64
          }
        }
        float_val: 1.0
      }
    }
  }
}
node {
  name: "resnet_v1_50/block1/unit_2/bottleneck_v1/conv2/BatchNorm/gamma"
  op: "VariableV2"
  attr {
    key: "_class"
    value {
      list {
        s: "loc:@resnet_v1_50/block1/unit_2/bottleneck_v1/conv2/BatchNorm/gamma"
      }
    }
  }
  attr {
    key: "container"
    value {
      s: ""
    }
  }
  attr {
    key: "dtype"
    value {
      type: DT_FLOAT
    }
  }
  attr {
    key: "shape"
    value {
      shape {
        dim {
          size: 64
        }
      }
    }
  }
  attr {
    key: "shared_name"
    value {
      s: ""
    }
  }
}
node {
  name: "resnet_v1_50/block1/unit_2/bottleneck_v1/conv2/BatchNorm/gamma/Assign"
  op: "Assign"
  input: "resnet_v1_50/block1/unit_2/bottleneck_v1/conv2/BatchNorm/gamma"
  input: "resnet_v1_50/block1/unit_2/bottleneck_v1/conv2/BatchNorm/gamma/Initializer/ones"
  attr {
    key: "T"
    value {
      type: DT_FLOAT
    }
  }
  attr {
    key: "_class"
    value {
      list {
        s: "loc:@resnet_v1_50/block1/unit_2/bottleneck_v1/conv2/BatchNorm/gamma"
      }
    }
  }
  attr {
    key: "use_locking"
    value {
      b: true
    }
  }
  attr {
    key: "validate_shape"
    value {
      b: true
    }
  }
}
node {
  name: "resnet_v1_50/block1/unit_2/bottleneck_v1/conv2/BatchNorm/gamma/read"
  op: "Identity"
  input: "resnet_v1_50/block1/unit_2/bottleneck_v1/conv2/BatchNorm/gamma"
  attr {
    key: "T"
    value {
      type: DT_FLOAT
    }
  }
  attr {
    key: "_class"
    value {
      list {
        s: "loc:@resnet_v1_50/block1/unit_2/bottleneck_v1/conv2/BatchNorm/gamma"
      }
    }
  }
}
node {
  name: "resnet_v1_50/block1/unit_2/bottleneck_v1/conv2/BatchNorm/beta/Initializer/zeros"
  op: "Const"
  attr {
    key: "_class"
    value {
      list {
        s: "loc:@resnet_v1_50/block1/unit_2/bottleneck_v1/conv2/BatchNorm/beta"
      }
    }
  }
  attr {
    key: "dtype"
    value {
      type: DT_FLOAT
    }
  }
  attr {
    key: "value"
    value {
      tensor {
        dtype: DT_FLOAT
        tensor_shape {
          dim {
            size: 64
          }
        }
        float_val: 0.0
      }
    }
  }
}
node {
  name: "resnet_v1_50/block1/unit_2/bottleneck_v1/conv2/BatchNorm/beta"
  op: "VariableV2"
  attr {
    key: "_class"
    value {
      list {
        s: "loc:@resnet_v1_50/block1/unit_2/bottleneck_v1/conv2/BatchNorm/beta"
      }
    }
  }
  attr {
    key: "container"
    value {
      s: ""
    }
  }
  attr {
    key: "dtype"
    value {
      type: DT_FLOAT
    }
  }
  attr {
    key: "shape"
    value {
      shape {
        dim {
          size: 64
        }
      }
    }
  }
  attr {
    key: "shared_name"
    value {
      s: ""
    }
  }
}
node {
  name: "resnet_v1_50/block1/unit_2/bottleneck_v1/conv2/BatchNorm/beta/Assign"
  op: "Assign"
  input: "resnet_v1_50/block1/unit_2/bottleneck_v1/conv2/BatchNorm/beta"
  input: "resnet_v1_50/block1/unit_2/bottleneck_v1/conv2/BatchNorm/beta/Initializer/zeros"
  attr {
    key: "T"
    value {
      type: DT_FLOAT
    }
  }
  attr {
    key: "_class"
    value {
      list {
        s: "loc:@resnet_v1_50/block1/unit_2/bottleneck_v1/conv2/BatchNorm/beta"
      }
    }
  }
  attr {
    key: "use_locking"
    value {
      b: true
    }
  }
  attr {
    key: "validate_shape"
    value {
      b: true
    }
  }
}
node {
  name: "resnet_v1_50/block1/unit_2/bottleneck_v1/conv2/BatchNorm/beta/read"
  op: "Identity"
  input: "resnet_v1_50/block1/unit_2/bottleneck_v1/conv2/BatchNorm/beta"
  attr {
    key: "T"
    value {
      type: DT_FLOAT
    }
  }
  attr {
    key: "_class"
    value {
      list {
        s: "loc:@resnet_v1_50/block1/unit_2/bottleneck_v1/conv2/BatchNorm/beta"
      }
    }
  }
}
node {
  name: "resnet_v1_50/block1/unit_2/bottleneck_v1/conv2/BatchNorm/moving_mean/Initializer/zeros"
  op: "Const"
  attr {
    key: "_class"
    value {
      list {
        s: "loc:@resnet_v1_50/block1/unit_2/bottleneck_v1/conv2/BatchNorm/moving_mean"
      }
    }
  }
  attr {
    key: "dtype"
    value {
      type: DT_FLOAT
    }
  }
  attr {
    key: "value"
    value {
      tensor {
        dtype: DT_FLOAT
        tensor_shape {
          dim {
            size: 64
          }
        }
        float_val: 0.0
      }
    }
  }
}
node {
  name: "resnet_v1_50/block1/unit_2/bottleneck_v1/conv2/BatchNorm/moving_mean"
  op: "VariableV2"
  attr {
    key: "_class"
    value {
      list {
        s: "loc:@resnet_v1_50/block1/unit_2/bottleneck_v1/conv2/BatchNorm/moving_mean"
      }
    }
  }
  attr {
    key: "container"
    value {
      s: ""
    }
  }
  attr {
    key: "dtype"
    value {
      type: DT_FLOAT
    }
  }
  attr {
    key: "shape"
    value {
      shape {
        dim {
          size: 64
        }
      }
    }
  }
  attr {
    key: "shared_name"
    value {
      s: ""
    }
  }
}
node {
  name: "resnet_v1_50/block1/unit_2/bottleneck_v1/conv2/BatchNorm/moving_mean/Assign"
  op: "Assign"
  input: "resnet_v1_50/block1/unit_2/bottleneck_v1/conv2/BatchNorm/moving_mean"
  input: "resnet_v1_50/block1/unit_2/bottleneck_v1/conv2/BatchNorm/moving_mean/Initializer/zeros"
  attr {
    key: "T"
    value {
      type: DT_FLOAT
    }
  }
  attr {
    key: "_class"
    value {
      list {
        s: "loc:@resnet_v1_50/block1/unit_2/bottleneck_v1/conv2/BatchNorm/moving_mean"
      }
    }
  }
  attr {
    key: "use_locking"
    value {
      b: true
    }
  }
  attr {
    key: "validate_shape"
    value {
      b: true
    }
  }
}
node {
  name: "resnet_v1_50/block1/unit_2/bottleneck_v1/conv2/BatchNorm/moving_mean/read"
  op: "Identity"
  input: "resnet_v1_50/block1/unit_2/bottleneck_v1/conv2/BatchNorm/moving_mean"
  attr {
    key: "T"
    value {
      type: DT_FLOAT
    }
  }
  attr {
    key: "_class"
    value {
      list {
        s: "loc:@resnet_v1_50/block1/unit_2/bottleneck_v1/conv2/BatchNorm/moving_mean"
      }
    }
  }
}
node {
  name: "resnet_v1_50/block1/unit_2/bottleneck_v1/conv2/BatchNorm/moving_variance/Initializer/ones"
  op: "Const"
  attr {
    key: "_class"
    value {
      list {
        s: "loc:@resnet_v1_50/block1/unit_2/bottleneck_v1/conv2/BatchNorm/moving_variance"
      }
    }
  }
  attr {
    key: "dtype"
    value {
      type: DT_FLOAT
    }
  }
  attr {
    key: "value"
    value {
      tensor {
        dtype: DT_FLOAT
        tensor_shape {
          dim {
            size: 64
          }
        }
        float_val: 1.0
      }
    }
  }
}
node {
  name: "resnet_v1_50/block1/unit_2/bottleneck_v1/conv2/BatchNorm/moving_variance"
  op: "VariableV2"
  attr {
    key: "_class"
    value {
      list {
        s: "loc:@resnet_v1_50/block1/unit_2/bottleneck_v1/conv2/BatchNorm/moving_variance"
      }
    }
  }
  attr {
    key: "container"
    value {
      s: ""
    }
  }
  attr {
    key: "dtype"
    value {
      type: DT_FLOAT
    }
  }
  attr {
    key: "shape"
    value {
      shape {
        dim {
          size: 64
        }
      }
    }
  }
  attr {
    key: "shared_name"
    value {
      s: ""
    }
  }
}
node {
  name: "resnet_v1_50/block1/unit_2/bottleneck_v1/conv2/BatchNorm/moving_variance/Assign"
  op: "Assign"
  input: "resnet_v1_50/block1/unit_2/bottleneck_v1/conv2/BatchNorm/moving_variance"
  input: "resnet_v1_50/block1/unit_2/bottleneck_v1/conv2/BatchNorm/moving_variance/Initializer/ones"
  attr {
    key: "T"
    value {
      type: DT_FLOAT
    }
  }
  attr {
    key: "_class"
    value {
      list {
        s: "loc:@resnet_v1_50/block1/unit_2/bottleneck_v1/conv2/BatchNorm/moving_variance"
      }
    }
  }
  attr {
    key: "use_locking"
    value {
      b: true
    }
  }
  attr {
    key: "validate_shape"
    value {
      b: true
    }
  }
}
node {
  name: "resnet_v1_50/block1/unit_2/bottleneck_v1/conv2/BatchNorm/moving_variance/read"
  op: "Identity"
  input: "resnet_v1_50/block1/unit_2/bottleneck_v1/conv2/BatchNorm/moving_variance"
  attr {
    key: "T"
    value {
      type: DT_FLOAT
    }
  }
  attr {
    key: "_class"
    value {
      list {
        s: "loc:@resnet_v1_50/block1/unit_2/bottleneck_v1/conv2/BatchNorm/moving_variance"
      }
    }
  }
}
node {
  name: "resnet_v1_50/block1/unit_2/bottleneck_v1/conv2/BatchNorm/FusedBatchNorm"
  op: "FusedBatchNorm"
  input: "resnet_v1_50/block1/unit_2/bottleneck_v1/conv2/Conv2D"
  input: "resnet_v1_50/block1/unit_2/bottleneck_v1/conv2/BatchNorm/gamma/read"
  input: "resnet_v1_50/block1/unit_2/bottleneck_v1/conv2/BatchNorm/beta/read"
  input: "resnet_v1_50/block1/unit_2/bottleneck_v1/conv2/BatchNorm/moving_mean/read"
  input: "resnet_v1_50/block1/unit_2/bottleneck_v1/conv2/BatchNorm/moving_variance/read"
  attr {
    key: "T"
    value {
      type: DT_FLOAT
    }
  }
  attr {
    key: "data_format"
    value {
      s: "NHWC"
    }
  }
  attr {
    key: "epsilon"
    value {
      f: 1.0009999641624745e-05
    }
  }
  attr {
    key: "is_training"
    value {
      b: false
    }
  }
}
node {
  name: "resnet_v1_50/block1/unit_2/bottleneck_v1/conv2/BatchNorm/Const"
  op: "Const"
  attr {
    key: "dtype"
    value {
      type: DT_FLOAT
    }
  }
  attr {
    key: "value"
    value {
      tensor {
        dtype: DT_FLOAT
        tensor_shape {
        }
        float_val: 0.996999979019165
      }
    }
  }
}
node {
  name: "resnet_v1_50/block1/unit_2/bottleneck_v1/conv2/Relu"
  op: "Relu"
  input: "resnet_v1_50/block1/unit_2/bottleneck_v1/conv2/BatchNorm/FusedBatchNorm"
  attr {
    key: "T"
    value {
      type: DT_FLOAT
    }
  }
}
node {
  name: "resnet_v1_50/block1/unit_2/bottleneck_v1/conv3/weights/Initializer/truncated_normal/shape"
  op: "Const"
  attr {
    key: "_class"
    value {
      list {
        s: "loc:@resnet_v1_50/block1/unit_2/bottleneck_v1/conv3/weights"
      }
    }
  }
  attr {
    key: "dtype"
    value {
      type: DT_INT32
    }
  }
  attr {
    key: "value"
    value {
      tensor {
        dtype: DT_INT32
        tensor_shape {
          dim {
            size: 4
          }
        }
        tensor_content: "\001\000\000\000\001\000\000\000@\000\000\000\000\001\000\000"
      }
    }
  }
}
node {
  name: "resnet_v1_50/block1/unit_2/bottleneck_v1/conv3/weights/Initializer/truncated_normal/mean"
  op: "Const"
  attr {
    key: "_class"
    value {
      list {
        s: "loc:@resnet_v1_50/block1/unit_2/bottleneck_v1/conv3/weights"
      }
    }
  }
  attr {
    key: "dtype"
    value {
      type: DT_FLOAT
    }
  }
  attr {
    key: "value"
    value {
      tensor {
        dtype: DT_FLOAT
        tensor_shape {
        }
        float_val: 0.0
      }
    }
  }
}
node {
  name: "resnet_v1_50/block1/unit_2/bottleneck_v1/conv3/weights/Initializer/truncated_normal/stddev"
  op: "Const"
  attr {
    key: "_class"
    value {
      list {
        s: "loc:@resnet_v1_50/block1/unit_2/bottleneck_v1/conv3/weights"
      }
    }
  }
  attr {
    key: "dtype"
    value {
      type: DT_FLOAT
    }
  }
  attr {
    key: "value"
    value {
      tensor {
        dtype: DT_FLOAT
        tensor_shape {
        }
        float_val: 0.20155644416809082
      }
    }
  }
}
node {
  name: "resnet_v1_50/block1/unit_2/bottleneck_v1/conv3/weights/Initializer/truncated_normal/TruncatedNormal"
  op: "TruncatedNormal"
  input: "resnet_v1_50/block1/unit_2/bottleneck_v1/conv3/weights/Initializer/truncated_normal/shape"
  attr {
    key: "T"
    value {
      type: DT_INT32
    }
  }
  attr {
    key: "_class"
    value {
      list {
        s: "loc:@resnet_v1_50/block1/unit_2/bottleneck_v1/conv3/weights"
      }
    }
  }
  attr {
    key: "dtype"
    value {
      type: DT_FLOAT
    }
  }
  attr {
    key: "seed"
    value {
      i: 0
    }
  }
  attr {
    key: "seed2"
    value {
      i: 0
    }
  }
}
node {
  name: "resnet_v1_50/block1/unit_2/bottleneck_v1/conv3/weights/Initializer/truncated_normal/mul"
  op: "Mul"
  input: "resnet_v1_50/block1/unit_2/bottleneck_v1/conv3/weights/Initializer/truncated_normal/TruncatedNormal"
  input: "resnet_v1_50/block1/unit_2/bottleneck_v1/conv3/weights/Initializer/truncated_normal/stddev"
  attr {
    key: "T"
    value {
      type: DT_FLOAT
    }
  }
  attr {
    key: "_class"
    value {
      list {
        s: "loc:@resnet_v1_50/block1/unit_2/bottleneck_v1/conv3/weights"
      }
    }
  }
}
node {
  name: "resnet_v1_50/block1/unit_2/bottleneck_v1/conv3/weights/Initializer/truncated_normal"
  op: "Add"
  input: "resnet_v1_50/block1/unit_2/bottleneck_v1/conv3/weights/Initializer/truncated_normal/mul"
  input: "resnet_v1_50/block1/unit_2/bottleneck_v1/conv3/weights/Initializer/truncated_normal/mean"
  attr {
    key: "T"
    value {
      type: DT_FLOAT
    }
  }
  attr {
    key: "_class"
    value {
      list {
        s: "loc:@resnet_v1_50/block1/unit_2/bottleneck_v1/conv3/weights"
      }
    }
  }
}
node {
  name: "resnet_v1_50/block1/unit_2/bottleneck_v1/conv3/weights"
  op: "VariableV2"
  attr {
    key: "_class"
    value {
      list {
        s: "loc:@resnet_v1_50/block1/unit_2/bottleneck_v1/conv3/weights"
      }
    }
  }
  attr {
    key: "container"
    value {
      s: ""
    }
  }
  attr {
    key: "dtype"
    value {
      type: DT_FLOAT
    }
  }
  attr {
    key: "shape"
    value {
      shape {
        dim {
          size: 1
        }
        dim {
          size: 1
        }
        dim {
          size: 64
        }
        dim {
          size: 256
        }
      }
    }
  }
  attr {
    key: "shared_name"
    value {
      s: ""
    }
  }
}
node {
  name: "resnet_v1_50/block1/unit_2/bottleneck_v1/conv3/weights/Assign"
  op: "Assign"
  input: "resnet_v1_50/block1/unit_2/bottleneck_v1/conv3/weights"
  input: "resnet_v1_50/block1/unit_2/bottleneck_v1/conv3/weights/Initializer/truncated_normal"
  attr {
    key: "T"
    value {
      type: DT_FLOAT
    }
  }
  attr {
    key: "_class"
    value {
      list {
        s: "loc:@resnet_v1_50/block1/unit_2/bottleneck_v1/conv3/weights"
      }
    }
  }
  attr {
    key: "use_locking"
    value {
      b: true
    }
  }
  attr {
    key: "validate_shape"
    value {
      b: true
    }
  }
}
node {
  name: "resnet_v1_50/block1/unit_2/bottleneck_v1/conv3/weights/read"
  op: "Identity"
  input: "resnet_v1_50/block1/unit_2/bottleneck_v1/conv3/weights"
  attr {
    key: "T"
    value {
      type: DT_FLOAT
    }
  }
  attr {
    key: "_class"
    value {
      list {
        s: "loc:@resnet_v1_50/block1/unit_2/bottleneck_v1/conv3/weights"
      }
    }
  }
}
node {
  name: "resnet_v1_50/block1/unit_2/bottleneck_v1/conv3/kernel/Regularizer/l2_regularizer/scale"
  op: "Const"
  attr {
    key: "dtype"
    value {
      type: DT_FLOAT
    }
  }
  attr {
    key: "value"
    value {
      tensor {
        dtype: DT_FLOAT
        tensor_shape {
        }
        float_val: 9.999999747378752e-05
      }
    }
  }
}
node {
  name: "resnet_v1_50/block1/unit_2/bottleneck_v1/conv3/kernel/Regularizer/l2_regularizer/L2Loss"
  op: "L2Loss"
  input: "resnet_v1_50/block1/unit_2/bottleneck_v1/conv3/weights/read"
  attr {
    key: "T"
    value {
      type: DT_FLOAT
    }
  }
}
node {
  name: "resnet_v1_50/block1/unit_2/bottleneck_v1/conv3/kernel/Regularizer/l2_regularizer"
  op: "Mul"
  input: "resnet_v1_50/block1/unit_2/bottleneck_v1/conv3/kernel/Regularizer/l2_regularizer/scale"
  input: "resnet_v1_50/block1/unit_2/bottleneck_v1/conv3/kernel/Regularizer/l2_regularizer/L2Loss"
  attr {
    key: "T"
    value {
      type: DT_FLOAT
    }
  }
}
node {
  name: "resnet_v1_50/block1/unit_2/bottleneck_v1/conv3/dilation_rate"
  op: "Const"
  attr {
    key: "dtype"
    value {
      type: DT_INT32
    }
  }
  attr {
    key: "value"
    value {
      tensor {
        dtype: DT_INT32
        tensor_shape {
          dim {
            size: 2
          }
        }
        tensor_content: "\001\000\000\000\001\000\000\000"
      }
    }
  }
}
node {
  name: "resnet_v1_50/block1/unit_2/bottleneck_v1/conv3/Conv2D"
  op: "Conv2D"
  input: "resnet_v1_50/block1/unit_2/bottleneck_v1/conv2/Relu"
  input: "resnet_v1_50/block1/unit_2/bottleneck_v1/conv3/weights/read"
  attr {
    key: "T"
    value {
      type: DT_FLOAT
    }
  }
  attr {
    key: "data_format"
    value {
      s: "NHWC"
    }
  }
  attr {
    key: "dilations"
    value {
      list {
        i: 1
        i: 1
        i: 1
        i: 1
      }
    }
  }
  attr {
    key: "explicit_paddings"
    value {
      list {
      }
    }
  }
  attr {
    key: "padding"
    value {
      s: "SAME"
    }
  }
  attr {
    key: "strides"
    value {
      list {
        i: 1
        i: 1
        i: 1
        i: 1
      }
    }
  }
  attr {
    key: "use_cudnn_on_gpu"
    value {
      b: true
    }
  }
}
node {
  name: "resnet_v1_50/block1/unit_2/bottleneck_v1/conv3/BatchNorm/gamma/Initializer/ones"
  op: "Const"
  attr {
    key: "_class"
    value {
      list {
        s: "loc:@resnet_v1_50/block1/unit_2/bottleneck_v1/conv3/BatchNorm/gamma"
      }
    }
  }
  attr {
    key: "dtype"
    value {
      type: DT_FLOAT
    }
  }
  attr {
    key: "value"
    value {
      tensor {
        dtype: DT_FLOAT
        tensor_shape {
          dim {
            size: 256
          }
        }
        float_val: 1.0
      }
    }
  }
}
node {
  name: "resnet_v1_50/block1/unit_2/bottleneck_v1/conv3/BatchNorm/gamma"
  op: "VariableV2"
  attr {
    key: "_class"
    value {
      list {
        s: "loc:@resnet_v1_50/block1/unit_2/bottleneck_v1/conv3/BatchNorm/gamma"
      }
    }
  }
  attr {
    key: "container"
    value {
      s: ""
    }
  }
  attr {
    key: "dtype"
    value {
      type: DT_FLOAT
    }
  }
  attr {
    key: "shape"
    value {
      shape {
        dim {
          size: 256
        }
      }
    }
  }
  attr {
    key: "shared_name"
    value {
      s: ""
    }
  }
}
node {
  name: "resnet_v1_50/block1/unit_2/bottleneck_v1/conv3/BatchNorm/gamma/Assign"
  op: "Assign"
  input: "resnet_v1_50/block1/unit_2/bottleneck_v1/conv3/BatchNorm/gamma"
  input: "resnet_v1_50/block1/unit_2/bottleneck_v1/conv3/BatchNorm/gamma/Initializer/ones"
  attr {
    key: "T"
    value {
      type: DT_FLOAT
    }
  }
  attr {
    key: "_class"
    value {
      list {
        s: "loc:@resnet_v1_50/block1/unit_2/bottleneck_v1/conv3/BatchNorm/gamma"
      }
    }
  }
  attr {
    key: "use_locking"
    value {
      b: true
    }
  }
  attr {
    key: "validate_shape"
    value {
      b: true
    }
  }
}
node {
  name: "resnet_v1_50/block1/unit_2/bottleneck_v1/conv3/BatchNorm/gamma/read"
  op: "Identity"
  input: "resnet_v1_50/block1/unit_2/bottleneck_v1/conv3/BatchNorm/gamma"
  attr {
    key: "T"
    value {
      type: DT_FLOAT
    }
  }
  attr {
    key: "_class"
    value {
      list {
        s: "loc:@resnet_v1_50/block1/unit_2/bottleneck_v1/conv3/BatchNorm/gamma"
      }
    }
  }
}
node {
  name: "resnet_v1_50/block1/unit_2/bottleneck_v1/conv3/BatchNorm/beta/Initializer/zeros"
  op: "Const"
  attr {
    key: "_class"
    value {
      list {
        s: "loc:@resnet_v1_50/block1/unit_2/bottleneck_v1/conv3/BatchNorm/beta"
      }
    }
  }
  attr {
    key: "dtype"
    value {
      type: DT_FLOAT
    }
  }
  attr {
    key: "value"
    value {
      tensor {
        dtype: DT_FLOAT
        tensor_shape {
          dim {
            size: 256
          }
        }
        float_val: 0.0
      }
    }
  }
}
node {
  name: "resnet_v1_50/block1/unit_2/bottleneck_v1/conv3/BatchNorm/beta"
  op: "VariableV2"
  attr {
    key: "_class"
    value {
      list {
        s: "loc:@resnet_v1_50/block1/unit_2/bottleneck_v1/conv3/BatchNorm/beta"
      }
    }
  }
  attr {
    key: "container"
    value {
      s: ""
    }
  }
  attr {
    key: "dtype"
    value {
      type: DT_FLOAT
    }
  }
  attr {
    key: "shape"
    value {
      shape {
        dim {
          size: 256
        }
      }
    }
  }
  attr {
    key: "shared_name"
    value {
      s: ""
    }
  }
}
node {
  name: "resnet_v1_50/block1/unit_2/bottleneck_v1/conv3/BatchNorm/beta/Assign"
  op: "Assign"
  input: "resnet_v1_50/block1/unit_2/bottleneck_v1/conv3/BatchNorm/beta"
  input: "resnet_v1_50/block1/unit_2/bottleneck_v1/conv3/BatchNorm/beta/Initializer/zeros"
  attr {
    key: "T"
    value {
      type: DT_FLOAT
    }
  }
  attr {
    key: "_class"
    value {
      list {
        s: "loc:@resnet_v1_50/block1/unit_2/bottleneck_v1/conv3/BatchNorm/beta"
      }
    }
  }
  attr {
    key: "use_locking"
    value {
      b: true
    }
  }
  attr {
    key: "validate_shape"
    value {
      b: true
    }
  }
}
node {
  name: "resnet_v1_50/block1/unit_2/bottleneck_v1/conv3/BatchNorm/beta/read"
  op: "Identity"
  input: "resnet_v1_50/block1/unit_2/bottleneck_v1/conv3/BatchNorm/beta"
  attr {
    key: "T"
    value {
      type: DT_FLOAT
    }
  }
  attr {
    key: "_class"
    value {
      list {
        s: "loc:@resnet_v1_50/block1/unit_2/bottleneck_v1/conv3/BatchNorm/beta"
      }
    }
  }
}
node {
  name: "resnet_v1_50/block1/unit_2/bottleneck_v1/conv3/BatchNorm/moving_mean/Initializer/zeros"
  op: "Const"
  attr {
    key: "_class"
    value {
      list {
        s: "loc:@resnet_v1_50/block1/unit_2/bottleneck_v1/conv3/BatchNorm/moving_mean"
      }
    }
  }
  attr {
    key: "dtype"
    value {
      type: DT_FLOAT
    }
  }
  attr {
    key: "value"
    value {
      tensor {
        dtype: DT_FLOAT
        tensor_shape {
          dim {
            size: 256
          }
        }
        float_val: 0.0
      }
    }
  }
}
node {
  name: "resnet_v1_50/block1/unit_2/bottleneck_v1/conv3/BatchNorm/moving_mean"
  op: "VariableV2"
  attr {
    key: "_class"
    value {
      list {
        s: "loc:@resnet_v1_50/block1/unit_2/bottleneck_v1/conv3/BatchNorm/moving_mean"
      }
    }
  }
  attr {
    key: "container"
    value {
      s: ""
    }
  }
  attr {
    key: "dtype"
    value {
      type: DT_FLOAT
    }
  }
  attr {
    key: "shape"
    value {
      shape {
        dim {
          size: 256
        }
      }
    }
  }
  attr {
    key: "shared_name"
    value {
      s: ""
    }
  }
}
node {
  name: "resnet_v1_50/block1/unit_2/bottleneck_v1/conv3/BatchNorm/moving_mean/Assign"
  op: "Assign"
  input: "resnet_v1_50/block1/unit_2/bottleneck_v1/conv3/BatchNorm/moving_mean"
  input: "resnet_v1_50/block1/unit_2/bottleneck_v1/conv3/BatchNorm/moving_mean/Initializer/zeros"
  attr {
    key: "T"
    value {
      type: DT_FLOAT
    }
  }
  attr {
    key: "_class"
    value {
      list {
        s: "loc:@resnet_v1_50/block1/unit_2/bottleneck_v1/conv3/BatchNorm/moving_mean"
      }
    }
  }
  attr {
    key: "use_locking"
    value {
      b: true
    }
  }
  attr {
    key: "validate_shape"
    value {
      b: true
    }
  }
}
node {
  name: "resnet_v1_50/block1/unit_2/bottleneck_v1/conv3/BatchNorm/moving_mean/read"
  op: "Identity"
  input: "resnet_v1_50/block1/unit_2/bottleneck_v1/conv3/BatchNorm/moving_mean"
  attr {
    key: "T"
    value {
      type: DT_FLOAT
    }
  }
  attr {
    key: "_class"
    value {
      list {
        s: "loc:@resnet_v1_50/block1/unit_2/bottleneck_v1/conv3/BatchNorm/moving_mean"
      }
    }
  }
}
node {
  name: "resnet_v1_50/block1/unit_2/bottleneck_v1/conv3/BatchNorm/moving_variance/Initializer/ones"
  op: "Const"
  attr {
    key: "_class"
    value {
      list {
        s: "loc:@resnet_v1_50/block1/unit_2/bottleneck_v1/conv3/BatchNorm/moving_variance"
      }
    }
  }
  attr {
    key: "dtype"
    value {
      type: DT_FLOAT
    }
  }
  attr {
    key: "value"
    value {
      tensor {
        dtype: DT_FLOAT
        tensor_shape {
          dim {
            size: 256
          }
        }
        float_val: 1.0
      }
    }
  }
}
node {
  name: "resnet_v1_50/block1/unit_2/bottleneck_v1/conv3/BatchNorm/moving_variance"
  op: "VariableV2"
  attr {
    key: "_class"
    value {
      list {
        s: "loc:@resnet_v1_50/block1/unit_2/bottleneck_v1/conv3/BatchNorm/moving_variance"
      }
    }
  }
  attr {
    key: "container"
    value {
      s: ""
    }
  }
  attr {
    key: "dtype"
    value {
      type: DT_FLOAT
    }
  }
  attr {
    key: "shape"
    value {
      shape {
        dim {
          size: 256
        }
      }
    }
  }
  attr {
    key: "shared_name"
    value {
      s: ""
    }
  }
}
node {
  name: "resnet_v1_50/block1/unit_2/bottleneck_v1/conv3/BatchNorm/moving_variance/Assign"
  op: "Assign"
  input: "resnet_v1_50/block1/unit_2/bottleneck_v1/conv3/BatchNorm/moving_variance"
  input: "resnet_v1_50/block1/unit_2/bottleneck_v1/conv3/BatchNorm/moving_variance/Initializer/ones"
  attr {
    key: "T"
    value {
      type: DT_FLOAT
    }
  }
  attr {
    key: "_class"
    value {
      list {
        s: "loc:@resnet_v1_50/block1/unit_2/bottleneck_v1/conv3/BatchNorm/moving_variance"
      }
    }
  }
  attr {
    key: "use_locking"
    value {
      b: true
    }
  }
  attr {
    key: "validate_shape"
    value {
      b: true
    }
  }
}
node {
  name: "resnet_v1_50/block1/unit_2/bottleneck_v1/conv3/BatchNorm/moving_variance/read"
  op: "Identity"
  input: "resnet_v1_50/block1/unit_2/bottleneck_v1/conv3/BatchNorm/moving_variance"
  attr {
    key: "T"
    value {
      type: DT_FLOAT
    }
  }
  attr {
    key: "_class"
    value {
      list {
        s: "loc:@resnet_v1_50/block1/unit_2/bottleneck_v1/conv3/BatchNorm/moving_variance"
      }
    }
  }
}
node {
  name: "resnet_v1_50/block1/unit_2/bottleneck_v1/conv3/BatchNorm/FusedBatchNorm"
  op: "FusedBatchNorm"
  input: "resnet_v1_50/block1/unit_2/bottleneck_v1/conv3/Conv2D"
  input: "resnet_v1_50/block1/unit_2/bottleneck_v1/conv3/BatchNorm/gamma/read"
  input: "resnet_v1_50/block1/unit_2/bottleneck_v1/conv3/BatchNorm/beta/read"
  input: "resnet_v1_50/block1/unit_2/bottleneck_v1/conv3/BatchNorm/moving_mean/read"
  input: "resnet_v1_50/block1/unit_2/bottleneck_v1/conv3/BatchNorm/moving_variance/read"
  attr {
    key: "T"
    value {
      type: DT_FLOAT
    }
  }
  attr {
    key: "data_format"
    value {
      s: "NHWC"
    }
  }
  attr {
    key: "epsilon"
    value {
      f: 1.0009999641624745e-05
    }
  }
  attr {
    key: "is_training"
    value {
      b: false
    }
  }
}
node {
  name: "resnet_v1_50/block1/unit_2/bottleneck_v1/conv3/BatchNorm/Const"
  op: "Const"
  attr {
    key: "dtype"
    value {
      type: DT_FLOAT
    }
  }
  attr {
    key: "value"
    value {
      tensor {
        dtype: DT_FLOAT
        tensor_shape {
        }
        float_val: 0.996999979019165
      }
    }
  }
}
node {
  name: "resnet_v1_50/block1/unit_2/bottleneck_v1/add"
  op: "Add"
  input: "resnet_v1_50/block1/unit_1/bottleneck_v1/Relu"
  input: "resnet_v1_50/block1/unit_2/bottleneck_v1/conv3/BatchNorm/FusedBatchNorm"
  attr {
    key: "T"
    value {
      type: DT_FLOAT
    }
  }
}
node {
  name: "resnet_v1_50/block1/unit_2/bottleneck_v1/Relu"
  op: "Relu"
  input: "resnet_v1_50/block1/unit_2/bottleneck_v1/add"
  attr {
    key: "T"
    value {
      type: DT_FLOAT
    }
  }
}
node {
  name: "resnet_v1_50/block1/unit_3/bottleneck_v1/shortcut/MaxPool"
  op: "MaxPool"
  input: "resnet_v1_50/block1/unit_2/bottleneck_v1/Relu"
  attr {
    key: "T"
    value {
      type: DT_FLOAT
    }
  }
  attr {
    key: "data_format"
    value {
      s: "NHWC"
    }
  }
  attr {
    key: "ksize"
    value {
      list {
        i: 1
        i: 1
        i: 1
        i: 1
      }
    }
  }
  attr {
    key: "padding"
    value {
      s: "SAME"
    }
  }
  attr {
    key: "strides"
    value {
      list {
        i: 1
        i: 2
        i: 2
        i: 1
      }
    }
  }
}
node {
  name: "resnet_v1_50/block1/unit_3/bottleneck_v1/conv1/weights/Initializer/truncated_normal/shape"
  op: "Const"
  attr {
    key: "_class"
    value {
      list {
        s: "loc:@resnet_v1_50/block1/unit_3/bottleneck_v1/conv1/weights"
      }
    }
  }
  attr {
    key: "dtype"
    value {
      type: DT_INT32
    }
  }
  attr {
    key: "value"
    value {
      tensor {
        dtype: DT_INT32
        tensor_shape {
          dim {
            size: 4
          }
        }
        tensor_content: "\001\000\000\000\001\000\000\000\000\001\000\000@\000\000\000"
      }
    }
  }
}
node {
  name: "resnet_v1_50/block1/unit_3/bottleneck_v1/conv1/weights/Initializer/truncated_normal/mean"
  op: "Const"
  attr {
    key: "_class"
    value {
      list {
        s: "loc:@resnet_v1_50/block1/unit_3/bottleneck_v1/conv1/weights"
      }
    }
  }
  attr {
    key: "dtype"
    value {
      type: DT_FLOAT
    }
  }
  attr {
    key: "value"
    value {
      tensor {
        dtype: DT_FLOAT
        tensor_shape {
        }
        float_val: 0.0
      }
    }
  }
}
node {
  name: "resnet_v1_50/block1/unit_3/bottleneck_v1/conv1/weights/Initializer/truncated_normal/stddev"
  op: "Const"
  attr {
    key: "_class"
    value {
      list {
        s: "loc:@resnet_v1_50/block1/unit_3/bottleneck_v1/conv1/weights"
      }
    }
  }
  attr {
    key: "dtype"
    value {
      type: DT_FLOAT
    }
  }
  attr {
    key: "value"
    value {
      tensor {
        dtype: DT_FLOAT
        tensor_shape {
        }
        float_val: 0.10077822208404541
      }
    }
  }
}
node {
  name: "resnet_v1_50/block1/unit_3/bottleneck_v1/conv1/weights/Initializer/truncated_normal/TruncatedNormal"
  op: "TruncatedNormal"
  input: "resnet_v1_50/block1/unit_3/bottleneck_v1/conv1/weights/Initializer/truncated_normal/shape"
  attr {
    key: "T"
    value {
      type: DT_INT32
    }
  }
  attr {
    key: "_class"
    value {
      list {
        s: "loc:@resnet_v1_50/block1/unit_3/bottleneck_v1/conv1/weights"
      }
    }
  }
  attr {
    key: "dtype"
    value {
      type: DT_FLOAT
    }
  }
  attr {
    key: "seed"
    value {
      i: 0
    }
  }
  attr {
    key: "seed2"
    value {
      i: 0
    }
  }
}
node {
  name: "resnet_v1_50/block1/unit_3/bottleneck_v1/conv1/weights/Initializer/truncated_normal/mul"
  op: "Mul"
  input: "resnet_v1_50/block1/unit_3/bottleneck_v1/conv1/weights/Initializer/truncated_normal/TruncatedNormal"
  input: "resnet_v1_50/block1/unit_3/bottleneck_v1/conv1/weights/Initializer/truncated_normal/stddev"
  attr {
    key: "T"
    value {
      type: DT_FLOAT
    }
  }
  attr {
    key: "_class"
    value {
      list {
        s: "loc:@resnet_v1_50/block1/unit_3/bottleneck_v1/conv1/weights"
      }
    }
  }
}
node {
  name: "resnet_v1_50/block1/unit_3/bottleneck_v1/conv1/weights/Initializer/truncated_normal"
  op: "Add"
  input: "resnet_v1_50/block1/unit_3/bottleneck_v1/conv1/weights/Initializer/truncated_normal/mul"
  input: "resnet_v1_50/block1/unit_3/bottleneck_v1/conv1/weights/Initializer/truncated_normal/mean"
  attr {
    key: "T"
    value {
      type: DT_FLOAT
    }
  }
  attr {
    key: "_class"
    value {
      list {
        s: "loc:@resnet_v1_50/block1/unit_3/bottleneck_v1/conv1/weights"
      }
    }
  }
}
node {
  name: "resnet_v1_50/block1/unit_3/bottleneck_v1/conv1/weights"
  op: "VariableV2"
  attr {
    key: "_class"
    value {
      list {
        s: "loc:@resnet_v1_50/block1/unit_3/bottleneck_v1/conv1/weights"
      }
    }
  }
  attr {
    key: "container"
    value {
      s: ""
    }
  }
  attr {
    key: "dtype"
    value {
      type: DT_FLOAT
    }
  }
  attr {
    key: "shape"
    value {
      shape {
        dim {
          size: 1
        }
        dim {
          size: 1
        }
        dim {
          size: 256
        }
        dim {
          size: 64
        }
      }
    }
  }
  attr {
    key: "shared_name"
    value {
      s: ""
    }
  }
}
node {
  name: "resnet_v1_50/block1/unit_3/bottleneck_v1/conv1/weights/Assign"
  op: "Assign"
  input: "resnet_v1_50/block1/unit_3/bottleneck_v1/conv1/weights"
  input: "resnet_v1_50/block1/unit_3/bottleneck_v1/conv1/weights/Initializer/truncated_normal"
  attr {
    key: "T"
    value {
      type: DT_FLOAT
    }
  }
  attr {
    key: "_class"
    value {
      list {
        s: "loc:@resnet_v1_50/block1/unit_3/bottleneck_v1/conv1/weights"
      }
    }
  }
  attr {
    key: "use_locking"
    value {
      b: true
    }
  }
  attr {
    key: "validate_shape"
    value {
      b: true
    }
  }
}
node {
  name: "resnet_v1_50/block1/unit_3/bottleneck_v1/conv1/weights/read"
  op: "Identity"
  input: "resnet_v1_50/block1/unit_3/bottleneck_v1/conv1/weights"
  attr {
    key: "T"
    value {
      type: DT_FLOAT
    }
  }
  attr {
    key: "_class"
    value {
      list {
        s: "loc:@resnet_v1_50/block1/unit_3/bottleneck_v1/conv1/weights"
      }
    }
  }
}
node {
  name: "resnet_v1_50/block1/unit_3/bottleneck_v1/conv1/kernel/Regularizer/l2_regularizer/scale"
  op: "Const"
  attr {
    key: "dtype"
    value {
      type: DT_FLOAT
    }
  }
  attr {
    key: "value"
    value {
      tensor {
        dtype: DT_FLOAT
        tensor_shape {
        }
        float_val: 9.999999747378752e-05
      }
    }
  }
}
node {
  name: "resnet_v1_50/block1/unit_3/bottleneck_v1/conv1/kernel/Regularizer/l2_regularizer/L2Loss"
  op: "L2Loss"
  input: "resnet_v1_50/block1/unit_3/bottleneck_v1/conv1/weights/read"
  attr {
    key: "T"
    value {
      type: DT_FLOAT
    }
  }
}
node {
  name: "resnet_v1_50/block1/unit_3/bottleneck_v1/conv1/kernel/Regularizer/l2_regularizer"
  op: "Mul"
  input: "resnet_v1_50/block1/unit_3/bottleneck_v1/conv1/kernel/Regularizer/l2_regularizer/scale"
  input: "resnet_v1_50/block1/unit_3/bottleneck_v1/conv1/kernel/Regularizer/l2_regularizer/L2Loss"
  attr {
    key: "T"
    value {
      type: DT_FLOAT
    }
  }
}
node {
  name: "resnet_v1_50/block1/unit_3/bottleneck_v1/conv1/dilation_rate"
  op: "Const"
  attr {
    key: "dtype"
    value {
      type: DT_INT32
    }
  }
  attr {
    key: "value"
    value {
      tensor {
        dtype: DT_INT32
        tensor_shape {
          dim {
            size: 2
          }
        }
        tensor_content: "\001\000\000\000\001\000\000\000"
      }
    }
  }
}
node {
  name: "resnet_v1_50/block1/unit_3/bottleneck_v1/conv1/Conv2D"
  op: "Conv2D"
  input: "resnet_v1_50/block1/unit_2/bottleneck_v1/Relu"
  input: "resnet_v1_50/block1/unit_3/bottleneck_v1/conv1/weights/read"
  attr {
    key: "T"
    value {
      type: DT_FLOAT
    }
  }
  attr {
    key: "data_format"
    value {
      s: "NHWC"
    }
  }
  attr {
    key: "dilations"
    value {
      list {
        i: 1
        i: 1
        i: 1
        i: 1
      }
    }
  }
  attr {
    key: "explicit_paddings"
    value {
      list {
      }
    }
  }
  attr {
    key: "padding"
    value {
      s: "SAME"
    }
  }
  attr {
    key: "strides"
    value {
      list {
        i: 1
        i: 1
        i: 1
        i: 1
      }
    }
  }
  attr {
    key: "use_cudnn_on_gpu"
    value {
      b: true
    }
  }
}
node {
  name: "resnet_v1_50/block1/unit_3/bottleneck_v1/conv1/BatchNorm/gamma/Initializer/ones"
  op: "Const"
  attr {
    key: "_class"
    value {
      list {
        s: "loc:@resnet_v1_50/block1/unit_3/bottleneck_v1/conv1/BatchNorm/gamma"
      }
    }
  }
  attr {
    key: "dtype"
    value {
      type: DT_FLOAT
    }
  }
  attr {
    key: "value"
    value {
      tensor {
        dtype: DT_FLOAT
        tensor_shape {
          dim {
            size: 64
          }
        }
        float_val: 1.0
      }
    }
  }
}
node {
  name: "resnet_v1_50/block1/unit_3/bottleneck_v1/conv1/BatchNorm/gamma"
  op: "VariableV2"
  attr {
    key: "_class"
    value {
      list {
        s: "loc:@resnet_v1_50/block1/unit_3/bottleneck_v1/conv1/BatchNorm/gamma"
      }
    }
  }
  attr {
    key: "container"
    value {
      s: ""
    }
  }
  attr {
    key: "dtype"
    value {
      type: DT_FLOAT
    }
  }
  attr {
    key: "shape"
    value {
      shape {
        dim {
          size: 64
        }
      }
    }
  }
  attr {
    key: "shared_name"
    value {
      s: ""
    }
  }
}
node {
  name: "resnet_v1_50/block1/unit_3/bottleneck_v1/conv1/BatchNorm/gamma/Assign"
  op: "Assign"
  input: "resnet_v1_50/block1/unit_3/bottleneck_v1/conv1/BatchNorm/gamma"
  input: "resnet_v1_50/block1/unit_3/bottleneck_v1/conv1/BatchNorm/gamma/Initializer/ones"
  attr {
    key: "T"
    value {
      type: DT_FLOAT
    }
  }
  attr {
    key: "_class"
    value {
      list {
        s: "loc:@resnet_v1_50/block1/unit_3/bottleneck_v1/conv1/BatchNorm/gamma"
      }
    }
  }
  attr {
    key: "use_locking"
    value {
      b: true
    }
  }
  attr {
    key: "validate_shape"
    value {
      b: true
    }
  }
}
node {
  name: "resnet_v1_50/block1/unit_3/bottleneck_v1/conv1/BatchNorm/gamma/read"
  op: "Identity"
  input: "resnet_v1_50/block1/unit_3/bottleneck_v1/conv1/BatchNorm/gamma"
  attr {
    key: "T"
    value {
      type: DT_FLOAT
    }
  }
  attr {
    key: "_class"
    value {
      list {
        s: "loc:@resnet_v1_50/block1/unit_3/bottleneck_v1/conv1/BatchNorm/gamma"
      }
    }
  }
}
node {
  name: "resnet_v1_50/block1/unit_3/bottleneck_v1/conv1/BatchNorm/beta/Initializer/zeros"
  op: "Const"
…
  input: "^Momentum/update_resnet_v1_50/block2/unit_1/bottleneck_v1/conv3/weights/ApplyMomentum"
  input: "^Momentum/update_resnet_v1_50/block2/unit_1/bottleneck_v1/shortcut/BatchNorm/beta/ApplyMomentum"
  input: "^Momentum/update_resnet_v1_50/block2/unit_1/bottleneck_v1/shortcut/BatchNorm/gamma/ApplyMomentum"
  input: "^Momentum/update_resnet_v1_50/block2/unit_1/bottleneck_v1/shortcut/weights/ApplyMomentum"
  input: "^Momentum/update_resnet_v1_50/block2/unit_2/bottleneck_v1/conv1/BatchNorm/beta/ApplyMomentum"
  input: "^Momentum/update_resnet_v1_50/block2/unit_2/bottleneck_v1/conv1/BatchNorm/gamma/ApplyMomentum"
  input: "^Momentum/update_resnet_v1_50/block2/unit_2/bottleneck_v1/conv1/weights/ApplyMomentum"
  input: "^Momentum/update_resnet_v1_50/block2/unit_2/bottleneck_v1/conv2/BatchNorm/beta/ApplyMomentum"
  input: "^Momentum/update_resnet_v1_50/block2/unit_2/bottleneck_v1/conv2/BatchNorm/gamma/ApplyMomentum"
  input: "^Momentum/update_resnet_v1_50/block2/unit_2/bottleneck_v1/conv2/weights/ApplyMomentum"
  input: "^Momentum/update_resnet_v1_50/block2/unit_2/bottleneck_v1/conv3/BatchNorm/beta/ApplyMomentum"
  input: "^Momentum/update_resnet_v1_50/block2/unit_2/bottleneck_v1/conv3/BatchNorm/gamma/ApplyMomentum"
  input: "^Momentum/update_resnet_v1_50/block2/unit_2/bottleneck_v1/conv3/weights/ApplyMomentum"
  input: "^Momentum/update_resnet_v1_50/block2/unit_3/bottleneck_v1/conv1/BatchNorm/beta/ApplyMomentum"
  input: "^Momentum/update_resnet_v1_50/block2/unit_3/bottleneck_v1/conv1/BatchNorm/gamma/ApplyMomentum"
  input: "^Momentum/update_resnet_v1_50/block2/unit_3/bottleneck_v1/conv1/weights/ApplyMomentum"
  input: "^Momentum/update_resnet_v1_50/block2/unit_3/bottleneck_v1/conv2/BatchNorm/beta/ApplyMomentum"
  input: "^Momentum/update_resnet_v1_50/block2/unit_3/bottleneck_v1/conv2/BatchNorm/gamma/ApplyMomentum"
  input: "^Momentum/update_resnet_v1_50/block2/unit_3/bottleneck_v1/conv2/weights/ApplyMomentum"
  input: "^Momentum/update_resnet_v1_50/block2/unit_3/bottleneck_v1/conv3/BatchNorm/beta/ApplyMomentum"
  input: "^Momentum/update_resnet_v1_50/block2/unit_3/bottleneck_v1/conv3/BatchNorm/gamma/ApplyMomentum"
  input: "^Momentum/update_resnet_v1_50/block2/unit_3/bottleneck_v1/conv3/weights/ApplyMomentum"
  input: "^Momentum/update_resnet_v1_50/block2/unit_4/bottleneck_v1/conv1/BatchNorm/beta/ApplyMomentum"
  input: "^Momentum/update_resnet_v1_50/block2/unit_4/bottleneck_v1/conv1/BatchNorm/gamma/ApplyMomentum"
  input: "^Momentum/update_resnet_v1_50/block2/unit_4/bottleneck_v1/conv1/weights/ApplyMomentum"
  input: "^Momentum/update_resnet_v1_50/block2/unit_4/bottleneck_v1/conv2/BatchNorm/beta/ApplyMomentum"
  input: "^Momentum/update_resnet_v1_50/block2/unit_4/bottleneck_v1/conv2/BatchNorm/gamma/ApplyMomentum"
  input: "^Momentum/update_resnet_v1_50/block2/unit_4/bottleneck_v1/conv2/weights/ApplyMomentum"
  input: "^Momentum/update_resnet_v1_50/block2/unit_4/bottleneck_v1/conv3/BatchNorm/beta/ApplyMomentum"
  input: "^Momentum/update_resnet_v1_50/block2/unit_4/bottleneck_v1/conv3/BatchNorm/gamma/ApplyMomentum"
  input: "^Momentum/update_resnet_v1_50/block2/unit_4/bottleneck_v1/conv3/weights/ApplyMomentum"
  input: "^Momentum/update_resnet_v1_50/block3/unit_1/bottleneck_v1/conv1/BatchNorm/beta/ApplyMomentum"
  input: "^Momentum/update_resnet_v1_50/block3/unit_1/bottleneck_v1/conv1/BatchNorm/gamma/ApplyMomentum"
  input: "^Momentum/update_resnet_v1_50/block3/unit_1/bottleneck_v1/conv1/weights/ApplyMomentum"
  input: "^Momentum/update_resnet_v1_50/block3/unit_1/bottleneck_v1/conv2/BatchNorm/beta/ApplyMomentum"
  input: "^Momentum/update_resnet_v1_50/block3/unit_1/bottleneck_v1/conv2/BatchNorm/gamma/ApplyMomentum"
  input: "^Momentum/update_resnet_v1_50/block3/unit_1/bottleneck_v1/conv2/weights/ApplyMomentum"
  input: "^Momentum/update_resnet_v1_50/block3/unit_1/bottleneck_v1/conv3/BatchNorm/beta/ApplyMomentum"
  input: "^Momentum/update_resnet_v1_50/block3/unit_1/bottleneck_v1/conv3/BatchNorm/gamma/ApplyMomentum"
  input: "^Momentum/update_resnet_v1_50/block3/unit_1/bottleneck_v1/conv3/weights/ApplyMomentum"
  input: "^Momentum/update_resnet_v1_50/block3/unit_1/bottleneck_v1/shortcut/BatchNorm/beta/ApplyMomentum"
  input: "^Momentum/update_resnet_v1_50/block3/unit_1/bottleneck_v1/shortcut/BatchNorm/gamma/ApplyMomentum"
  input: "^Momentum/update_resnet_v1_50/block3/unit_1/bottleneck_v1/shortcut/weights/ApplyMomentum"
  input: "^Momentum/update_resnet_v1_50/block3/unit_2/bottleneck_v1/conv1/BatchNorm/beta/ApplyMomentum"
  input: "^Momentum/update_resnet_v1_50/block3/unit_2/bottleneck_v1/conv1/BatchNorm/gamma/ApplyMomentum"
  input: "^Momentum/update_resnet_v1_50/block3/unit_2/bottleneck_v1/conv1/weights/ApplyMomentum"
  input: "^Momentum/update_resnet_v1_50/block3/unit_2/bottleneck_v1/conv2/BatchNorm/beta/ApplyMomentum"
  input: "^Momentum/update_resnet_v1_50/block3/unit_2/bottleneck_v1/conv2/BatchNorm/gamma/ApplyMomentum"
  input: "^Momentum/update_resnet_v1_50/block3/unit_2/bottleneck_v1/conv2/weights/ApplyMomentum"
  input: "^Momentum/update_resnet_v1_50/block3/unit_2/bottleneck_v1/conv3/BatchNorm/beta/ApplyMomentum"
  input: "^Momentum/update_resnet_v1_50/block3/unit_2/bottleneck_v1/conv3/BatchNorm/gamma/ApplyMomentum"
  input: "^Momentum/update_resnet_v1_50/block3/unit_2/bottleneck_v1/conv3/weights/ApplyMomentum"
  input: "^Momentum/update_resnet_v1_50/block3/unit_3/bottleneck_v1/conv1/BatchNorm/beta/ApplyMomentum"
  input: "^Momentum/update_resnet_v1_50/block3/unit_3/bottleneck_v1/conv1/BatchNorm/gamma/ApplyMomentum"
  input: "^Momentum/update_resnet_v1_50/block3/unit_3/bottleneck_v1/conv1/weights/ApplyMomentum"
  input: "^Momentum/update_resnet_v1_50/block3/unit_3/bottleneck_v1/conv2/BatchNorm/beta/ApplyMomentum"
  input: "^Momentum/update_resnet_v1_50/block3/unit_3/bottleneck_v1/conv2/BatchNorm/gamma/ApplyMomentum"
  input: "^Momentum/update_resnet_v1_50/block3/unit_3/bottleneck_v1/conv2/weights/ApplyMomentum"
  input: "^Momentum/update_resnet_v1_50/block3/unit_3/bottleneck_v1/conv3/BatchNorm/beta/ApplyMomentum"
  input: "^Momentum/update_resnet_v1_50/block3/unit_3/bottleneck_v1/conv3/BatchNorm/gamma/ApplyMomentum"
  input: "^Momentum/update_resnet_v1_50/block3/unit_3/bottleneck_v1/conv3/weights/ApplyMomentum"
  input: "^Momentum/update_resnet_v1_50/block3/unit_4/bottleneck_v1/conv1/BatchNorm/beta/ApplyMomentum"
  input: "^Momentum/update_resnet_v1_50/block3/unit_4/bottleneck_v1/conv1/BatchNorm/gamma/ApplyMomentum"
  input: "^Momentum/update_resnet_v1_50/block3/unit_4/bottleneck_v1/conv1/weights/ApplyMomentum"
  input: "^Momentum/update_resnet_v1_50/block3/unit_4/bottleneck_v1/conv2/BatchNorm/beta/ApplyMomentum"
  input: "^Momentum/update_resnet_v1_50/block3/unit_4/bottleneck_v1/conv2/BatchNorm/gamma/ApplyMomentum"
  input: "^Momentum/update_resnet_v1_50/block3/unit_4/bottleneck_v1/conv2/weights/ApplyMomentum"
  input: "^Momentum/update_resnet_v1_50/block3/unit_4/bottleneck_v1/conv3/BatchNorm/beta/ApplyMomentum"
  input: "^Momentum/update_resnet_v1_50/block3/unit_4/bottleneck_v1/conv3/BatchNorm/gamma/ApplyMomentum"
  input: "^Momentum/update_resnet_v1_50/block3/unit_4/bottleneck_v1/conv3/weights/ApplyMomentum"
  input: "^Momentum/update_resnet_v1_50/block3/unit_5/bottleneck_v1/conv1/BatchNorm/beta/ApplyMomentum"
  input: "^Momentum/update_resnet_v1_50/block3/unit_5/bottleneck_v1/conv1/BatchNorm/gamma/ApplyMomentum"
  input: "^Momentum/update_resnet_v1_50/block3/unit_5/bottleneck_v1/conv1/weights/ApplyMomentum"
  input: "^Momentum/update_resnet_v1_50/block3/unit_5/bottleneck_v1/conv2/BatchNorm/beta/ApplyMomentum"
  input: "^Momentum/update_resnet_v1_50/block3/unit_5/bottleneck_v1/conv2/BatchNorm/gamma/ApplyMomentum"
  input: "^Momentum/update_resnet_v1_50/block3/unit_5/bottleneck_v1/conv2/weights/ApplyMomentum"
  input: "^Momentum/update_resnet_v1_50/block3/unit_5/bottleneck_v1/conv3/BatchNorm/beta/ApplyMomentum"
  input: "^Momentum/update_resnet_v1_50/block3/unit_5/bottleneck_v1/conv3/BatchNorm/gamma/ApplyMomentum"
  input: "^Momentum/update_resnet_v1_50/block3/unit_5/bottleneck_v1/conv3/weights/ApplyMomentum"
  input: "^Momentum/update_resnet_v1_50/block3/unit_6/bottleneck_v1/conv1/BatchNorm/beta/ApplyMomentum"
  input: "^Momentum/update_resnet_v1_50/block3/unit_6/bottleneck_v1/conv1/BatchNorm/gamma/ApplyMomentum"
  input: "^Momentum/update_resnet_v1_50/block3/unit_6/bottleneck_v1/conv1/weights/ApplyMomentum"
  input: "^Momentum/update_resnet_v1_50/block3/unit_6/bottleneck_v1/conv2/BatchNorm/beta/ApplyMomentum"
  input: "^Momentum/update_resnet_v1_50/block3/unit_6/bottleneck_v1/conv2/BatchNorm/gamma/ApplyMomentum"
  input: "^Momentum/update_resnet_v1_50/block3/unit_6/bottleneck_v1/conv2/weights/ApplyMomentum"
  input: "^Momentum/update_resnet_v1_50/block3/unit_6/bottleneck_v1/conv3/BatchNorm/beta/ApplyMomentum"
  input: "^Momentum/update_resnet_v1_50/block3/unit_6/bottleneck_v1/conv3/BatchNorm/gamma/ApplyMomentum"
  input: "^Momentum/update_resnet_v1_50/block3/unit_6/bottleneck_v1/conv3/weights/ApplyMomentum"
  input: "^Momentum/update_resnet_v1_50/block4/unit_1/bottleneck_v1/conv1/BatchNorm/beta/ApplyMomentum"
  input: "^Momentum/update_resnet_v1_50/block4/unit_1/bottleneck_v1/conv1/BatchNorm/gamma/ApplyMomentum"
  input: "^Momentum/update_resnet_v1_50/block4/unit_1/bottleneck_v1/conv1/weights/ApplyMomentum"
  input: "^Momentum/update_resnet_v1_50/block4/unit_1/bottleneck_v1/conv2/BatchNorm/beta/ApplyMomentum"
  input: "^Momentum/update_resnet_v1_50/block4/unit_1/bottleneck_v1/conv2/BatchNorm/gamma/ApplyMomentum"
  input: "^Momentum/update_resnet_v1_50/block4/unit_1/bottleneck_v1/conv2/weights/ApplyMomentum"
  input: "^Momentum/update_resnet_v1_50/block4/unit_1/bottleneck_v1/conv3/BatchNorm/beta/ApplyMomentum"
  input: "^Momentum/update_resnet_v1_50/block4/unit_1/bottleneck_v1/conv3/BatchNorm/gamma/ApplyMomentum"
  input: "^Momentum/update_resnet_v1_50/block4/unit_1/bottleneck_v1/conv3/weights/ApplyMomentum"
  input: "^Momentum/update_resnet_v1_50/block4/unit_1/bottleneck_v1/shortcut/BatchNorm/beta/ApplyMomentum"
  input: "^Momentum/update_resnet_v1_50/block4/unit_1/bottleneck_v1/shortcut/BatchNorm/gamma/ApplyMomentum"
  input: "^Momentum/update_resnet_v1_50/block4/unit_1/bottleneck_v1/shortcut/weights/ApplyMomentum"
  input: "^Momentum/update_resnet_v1_50/block4/unit_2/bottleneck_v1/conv1/BatchNorm/beta/ApplyMomentum"
  input: "^Momentum/update_resnet_v1_50/block4/unit_2/bottleneck_v1/conv1/BatchNorm/gamma/ApplyMomentum"
  input: "^Momentum/update_resnet_v1_50/block4/unit_2/bottleneck_v1/conv1/weights/ApplyMomentum"
  input: "^Momentum/update_resnet_v1_50/block4/unit_2/bottleneck_v1/conv2/BatchNorm/beta/ApplyMomentum"
  input: "^Momentum/update_resnet_v1_50/block4/unit_2/bottleneck_v1/conv2/BatchNorm/gamma/ApplyMomentum"
  input: "^Momentum/update_resnet_v1_50/block4/unit_2/bottleneck_v1/conv2/weights/ApplyMomentum"
  input: "^Momentum/update_resnet_v1_50/block4/unit_2/bottleneck_v1/conv3/BatchNorm/beta/ApplyMomentum"
  input: "^Momentum/update_resnet_v1_50/block4/unit_2/bottleneck_v1/conv3/BatchNorm/gamma/ApplyMomentum"
  input: "^Momentum/update_resnet_v1_50/block4/unit_2/bottleneck_v1/conv3/weights/ApplyMomentum"
  input: "^Momentum/update_resnet_v1_50/block4/unit_3/bottleneck_v1/conv1/BatchNorm/beta/ApplyMomentum"
  input: "^Momentum/update_resnet_v1_50/block4/unit_3/bottleneck_v1/conv1/BatchNorm/gamma/ApplyMomentum"
  input: "^Momentum/update_resnet_v1_50/block4/unit_3/bottleneck_v1/conv1/weights/ApplyMomentum"
  input: "^Momentum/update_resnet_v1_50/block4/unit_3/bottleneck_v1/conv2/BatchNorm/beta/ApplyMomentum"
  input: "^Momentum/update_resnet_v1_50/block4/unit_3/bottleneck_v1/conv2/BatchNorm/gamma/ApplyMomentum"
  input: "^Momentum/update_resnet_v1_50/block4/unit_3/bottleneck_v1/conv2/weights/ApplyMomentum"
  input: "^Momentum/update_resnet_v1_50/block4/unit_3/bottleneck_v1/conv3/BatchNorm/beta/ApplyMomentum"
  input: "^Momentum/update_resnet_v1_50/block4/unit_3/bottleneck_v1/conv3/BatchNorm/gamma/ApplyMomentum"
  input: "^Momentum/update_resnet_v1_50/block4/unit_3/bottleneck_v1/conv3/weights/ApplyMomentum"
  input: "^Momentum/update_resnet_v1_50/conv1/BatchNorm/beta/ApplyMomentum"
  input: "^Momentum/update_resnet_v1_50/conv1/BatchNorm/gamma/ApplyMomentum"
  input: "^Momentum/update_resnet_v1_50/conv1/weights/ApplyMomentum"
}
node {
  name: "Momentum/Const"
  op: "Const"
  input: "^Momentum/update"
  attr {
    key: "_class"
    value {
      list {
        s: "loc:@global_step"
      }
    }
  }
  attr {
    key: "dtype"
    value {
      type: DT_INT64
    }
  }
  attr {
    key: "value"
    value {
      tensor {
        dtype: DT_INT64
        tensor_shape {
        }
        int64_val: 1
      }
    }
  }
}
node {
  name: "Momentum"
  op: "AssignAddVariableOp"
  input: "global_step"
  input: "Momentum/Const"
  attr {
    key: "_class"
    value {
      list {
        s: "loc:@global_step"
      }
    }
  }
  attr {
    key: "dtype"
    value {
      type: DT_INT64
    }
  }
}
node {
  name: "train_op/CheckNumerics"
  op: "CheckNumerics"
  input: "add"
  attr {
    key: "T"
    value {
      type: DT_FLOAT
    }
  }
  attr {
    key: "message"
    value {
      s: "LossTensor is inf or nan"
    }
  }
}
node {
  name: "train_op/control_dependency"
  op: "Identity"
  input: "train_op/CheckNumerics"
  input: "^Momentum"
  attr {
    key: "T"
    value {
      type: DT_FLOAT
    }
  }
  attr {
    key: "_class"
    value {
      list {
        s: "loc:@train_op/CheckNumerics"
      }
    }
  }
}
node {
  name: "init"
  op: "NoOp"
  input: "^global_step/Assign"
  input: "^pose/locref_pred/block4/biases/Assign"
  input: "^pose/locref_pred/block4/biases/Momentum/Assign"
  input: "^pose/locref_pred/block4/weights/Assign"
  input: "^pose/locref_pred/block4/weights/Momentum/Assign"
  input: "^pose/part_pred/block4/biases/Assign"
  input: "^pose/part_pred/block4/biases/Momentum/Assign"
  input: "^pose/part_pred/block4/weights/Assign"
  input: "^pose/part_pred/block4/weights/Momentum/Assign"
  input: "^resnet_v1_50/block1/unit_1/bottleneck_v1/conv1/BatchNorm/beta/Assign"
  input: "^resnet_v1_50/block1/unit_1/bottleneck_v1/conv1/BatchNorm/beta/Momentum/Assign"
  input: "^resnet_v1_50/block1/unit_1/bottleneck_v1/conv1/BatchNorm/gamma/Assign"
  input: "^resnet_v1_50/block1/unit_1/bottleneck_v1/conv1/BatchNorm/gamma/Momentum/Assign"
  input: "^resnet_v1_50/block1/unit_1/bottleneck_v1/conv1/BatchNorm/moving_mean/Assign"
  input: "^resnet_v1_50/block1/unit_1/bottleneck_v1/conv1/BatchNorm/moving_variance/Assign"
  input: "^resnet_v1_50/block1/unit_1/bottleneck_v1/conv1/weights/Assign"
  input: "^resnet_v1_50/block1/unit_1/bottleneck_v1/conv1/weights/Momentum/Assign"
  input: "^resnet_v1_50/block1/unit_1/bottleneck_v1/conv2/BatchNorm/beta/Assign"
  input: "^resnet_v1_50/block1/unit_1/bottleneck_v1/conv2/BatchNorm/beta/Momentum/Assign"
  input: "^resnet_v1_50/block1/unit_1/bottleneck_v1/conv2/BatchNorm/gamma/Assign"
  input: "^resnet_v1_50/block1/unit_1/bottleneck_v1/conv2/BatchNorm/gamma/Momentum/Assign"
  input: "^resnet_v1_50/block1/unit_1/bottleneck_v1/conv2/BatchNorm/moving_mean/Assign"
  input: "^resnet_v1_50/block1/unit_1/bottleneck_v1/conv2/BatchNorm/moving_variance/Assign"
  input: "^resnet_v1_50/block1/unit_1/bottleneck_v1/conv2/weights/Assign"
  input: "^resnet_v1_50/block1/unit_1/bottleneck_v1/conv2/weights/Momentum/Assign"
  input: "^resnet_v1_50/block1/unit_1/bottleneck_v1/conv3/BatchNorm/beta/Assign"
  input: "^resnet_v1_50/block1/unit_1/bottleneck_v1/conv3/BatchNorm/beta/Momentum/Assign"
  input: "^resnet_v1_50/block1/unit_1/bottleneck_v1/conv3/BatchNorm/gamma/Assign"
  input: "^resnet_v1_50/block1/unit_1/bottleneck_v1/conv3/BatchNorm/gamma/Momentum/Assign"
  input: "^resnet_v1_50/block1/unit_1/bottleneck_v1/conv3/BatchNorm/moving_mean/Assign"
  input: "^resnet_v1_50/block1/unit_1/bottleneck_v1/conv3/BatchNorm/moving_variance/Assign"
  input: "^resnet_v1_50/block1/unit_1/bottleneck_v1/conv3/weights/Assign"
  input: "^resnet_v1_50/block1/unit_1/bottleneck_v1/conv3/weights/Momentum/Assign"
  input: "^resnet_v1_50/block1/unit_1/bottleneck_v1/shortcut/BatchNorm/beta/Assign"
  input: "^resnet_v1_50/block1/unit_1/bottleneck_v1/shortcut/BatchNorm/beta/Momentum/Assign"
  input: "^resnet_v1_50/block1/unit_1/bottleneck_v1/shortcut/BatchNorm/gamma/Assign"
  input: "^resnet_v1_50/block1/unit_1/bottleneck_v1/shortcut/BatchNorm/gamma/Momentum/Assign"
  input: "^resnet_v1_50/block1/unit_1/bottleneck_v1/shortcut/BatchNorm/moving_mean/Assign"
  input: "^resnet_v1_50/block1/unit_1/bottleneck_v1/shortcut/BatchNorm/moving_variance/Assign"
  input: "^resnet_v1_50/block1/unit_1/bottleneck_v1/shortcut/weights/Assign"
  input: "^resnet_v1_50/block1/unit_1/bottleneck_v1/shortcut/weights/Momentum/Assign"
  input: "^resnet_v1_50/block1/unit_2/bottleneck_v1/conv1/BatchNorm/beta/Assign"
  input: "^resnet_v1_50/block1/unit_2/bottleneck_v1/conv1/BatchNorm/beta/Momentum/Assign"
  input: "^resnet_v1_50/block1/unit_2/bottleneck_v1/conv1/BatchNorm/gamma/Assign"
  input: "^resnet_v1_50/block1/unit_2/bottleneck_v1/conv1/BatchNorm/gamma/Momentum/Assign"
  input: "^resnet_v1_50/block1/unit_2/bottleneck_v1/conv1/BatchNorm/moving_mean/Assign"
  input: "^resnet_v1_50/block1/unit_2/bottleneck_v1/conv1/BatchNorm/moving_variance/Assign"
  input: "^resnet_v1_50/block1/unit_2/bottleneck_v1/conv1/weights/Assign"
  input: "^resnet_v1_50/block1/unit_2/bottleneck_v1/conv1/weights/Momentum/Assign"
  input: "^resnet_v1_50/block1/unit_2/bottleneck_v1/conv2/BatchNorm/beta/Assign"
  input: "^resnet_v1_50/block1/unit_2/bottleneck_v1/conv2/BatchNorm/beta/Momentum/Assign"
  input: "^resnet_v1_50/block1/unit_2/bottleneck_v1/conv2/BatchNorm/gamma/Assign"
  input: "^resnet_v1_50/block1/unit_2/bottleneck_v1/conv2/BatchNorm/gamma/Momentum/Assign"
  input: "^resnet_v1_50/block1/unit_2/bottleneck_v1/conv2/BatchNorm/moving_mean/Assign"
  input: "^resnet_v1_50/block1/unit_2/bottleneck_v1/conv2/BatchNorm/moving_variance/Assign"
  input: "^resnet_v1_50/block1/unit_2/bottleneck_v1/conv2/weights/Assign"
  input: "^resnet_v1_50/block1/unit_2/bottleneck_v1/conv2/weights/Momentum/Assign"
  input: "^resnet_v1_50/block1/unit_2/bottleneck_v1/conv3/BatchNorm/beta/Assign"
  input: "^resnet_v1_50/block1/unit_2/bottleneck_v1/conv3/BatchNorm/beta/Momentum/Assign"
  input: "^resnet_v1_50/block1/unit_2/bottleneck_v1/conv3/BatchNorm/gamma/Assign"
  input: "^resnet_v1_50/block1/unit_2/bottleneck_v1/conv3/BatchNorm/gamma/Momentum/Assign"
  input: "^resnet_v1_50/block1/unit_2/bottleneck_v1/conv3/BatchNorm/moving_mean/Assign"
  input: "^resnet_v1_50/block1/unit_2/bottleneck_v1/conv3/BatchNorm/moving_variance/Assign"
  input: "^resnet_v1_50/block1/unit_2/bottleneck_v1/conv3/weights/Assign"
  input: "^resnet_v1_50/block1/unit_2/bottleneck_v1/conv3/weights/Momentum/Assign"
  input: "^resnet_v1_50/block1/unit_3/bottleneck_v1/conv1/BatchNorm/beta/Assign"
  input: "^resnet_v1_50/block1/unit_3/bottleneck_v1/conv1/BatchNorm/beta/Momentum/Assign"
  input: "^resnet_v1_50/block1/unit_3/bottleneck_v1/conv1/BatchNorm/gamma/Assign"
  input: "^resnet_v1_50/block1/unit_3/bottleneck_v1/conv1/BatchNorm/gamma/Momentum/Assign"
  input: "^resnet_v1_50/block1/unit_3/bottleneck_v1/conv1/BatchNorm/moving_mean/Assign"
  input: "^resnet_v1_50/block1/unit_3/bottleneck_v1/conv1/BatchNorm/moving_variance/Assign"
  input: "^resnet_v1_50/block1/unit_3/bottleneck_v1/conv1/weights/Assign"
  input: "^resnet_v1_50/block1/unit_3/bottleneck_v1/conv1/weights/Momentum/Assign"
  input: "^resnet_v1_50/block1/unit_3/bottleneck_v1/conv2/BatchNorm/beta/Assign"
  input: "^resnet_v1_50/block1/unit_3/bottleneck_v1/conv2/BatchNorm/beta/Momentum/Assign"
  input: "^resnet_v1_50/block1/unit_3/bottleneck_v1/conv2/BatchNorm/gamma/Assign"
  input: "^resnet_v1_50/block1/unit_3/bottleneck_v1/conv2/BatchNorm/gamma/Momentum/Assign"
  input: "^resnet_v1_50/block1/unit_3/bottleneck_v1/conv2/BatchNorm/moving_mean/Assign"
  input: "^resnet_v1_50/block1/unit_3/bottleneck_v1/conv2/BatchNorm/moving_variance/Assign"
  input: "^resnet_v1_50/block1/unit_3/bottleneck_v1/conv2/weights/Assign"
  input: "^resnet_v1_50/block1/unit_3/bottleneck_v1/conv2/weights/Momentum/Assign"
  input: "^resnet_v1_50/block1/unit_3/bottleneck_v1/conv3/BatchNorm/beta/Assign"
  input: "^resnet_v1_50/block1/unit_3/bottleneck_v1/conv3/BatchNorm/beta/Momentum/Assign"
  input: "^resnet_v1_50/block1/unit_3/bottleneck_v1/conv3/BatchNorm/gamma/Assign"
  input: "^resnet_v1_50/block1/unit_3/bottleneck_v1/conv3/BatchNorm/gamma/Momentum/Assign"
  input: "^resnet_v1_50/block1/unit_3/bottleneck_v1/conv3/BatchNorm/moving_mean/Assign"
  input: "^resnet_v1_50/block1/unit_3/bottleneck_v1/conv3/BatchNorm/moving_variance/Assign"
  input: "^resnet_v1_50/block1/unit_3/bottleneck_v1/conv3/weights/Assign"
  input: "^resnet_v1_50/block1/unit_3/bottleneck_v1/conv3/weights/Momentum/Assign"
  input: "^resnet_v1_50/block2/unit_1/bottleneck_v1/conv1/BatchNorm/beta/Assign"
  input: "^resnet_v1_50/block2/unit_1/bottleneck_v1/conv1/BatchNorm/beta/Momentum/Assign"
  input: "^resnet_v1_50/block2/unit_1/bottleneck_v1/conv1/BatchNorm/gamma/Assign"
  input: "^resnet_v1_50/block2/unit_1/bottleneck_v1/conv1/BatchNorm/gamma/Momentum/Assign"
  input: "^resnet_v1_50/block2/unit_1/bottleneck_v1/conv1/BatchNorm/moving_mean/Assign"
  input: "^resnet_v1_50/block2/unit_1/bottleneck_v1/conv1/BatchNorm/moving_variance/Assign"
  input: "^resnet_v1_50/block2/unit_1/bottleneck_v1/conv1/weights/Assign"
  input: "^resnet_v1_50/block2/unit_1/bottleneck_v1/conv1/weights/Momentum/Assign"
  input: "^resnet_v1_50/block2/unit_1/bottleneck_v1/conv2/BatchNorm/beta/Assign"
  input: "^resnet_v1_50/block2/unit_1/bottleneck_v1/conv2/BatchNorm/beta/Momentum/Assign"
  input: "^resnet_v1_50/block2/unit_1/bottleneck_v1/conv2/BatchNorm/gamma/Assign"
  input: "^resnet_v1_50/block2/unit_1/bottleneck_v1/conv2/BatchNorm/gamma/Momentum/Assign"
  input: "^resnet_v1_50/block2/unit_1/bottleneck_v1/conv2/BatchNorm/moving_mean/Assign"
  input: "^resnet_v1_50/block2/unit_1/bottleneck_v1/conv2/BatchNorm/moving_variance/Assign"
  input: "^resnet_v1_50/block2/unit_1/bottleneck_v1/conv2/weights/Assign"
  input: "^resnet_v1_50/block2/unit_1/bottleneck_v1/conv2/weights/Momentum/Assign"
  input: "^resnet_v1_50/block2/unit_1/bottleneck_v1/conv3/BatchNorm/beta/Assign"
  input: "^resnet_v1_50/block2/unit_1/bottleneck_v1/conv3/BatchNorm/beta/Momentum/Assign"
  input: "^resnet_v1_50/block2/unit_1/bottleneck_v1/conv3/BatchNorm/gamma/Assign"
  input: "^resnet_v1_50/block2/unit_1/bottleneck_v1/conv3/BatchNorm/gamma/Momentum/Assign"
  input: "^resnet_v1_50/block2/unit_1/bottleneck_v1/conv3/BatchNorm/moving_mean/Assign"
  input: "^resnet_v1_50/block2/unit_1/bottleneck_v1/conv3/BatchNorm/moving_variance/Assign"
  input: "^resnet_v1_50/block2/unit_1/bottleneck_v1/conv3/weights/Assign"
  input: "^resnet_v1_50/block2/unit_1/bottleneck_v1/conv3/weights/Momentum/Assign"
  input: "^resnet_v1_50/block2/unit_1/bottleneck_v1/shortcut/BatchNorm/beta/Assign"
  input: "^resnet_v1_50/block2/unit_1/bottleneck_v1/shortcut/BatchNorm/beta/Momentum/Assign"
  input: "^resnet_v1_50/block2/unit_1/bottleneck_v1/shortcut/BatchNorm/gamma/Assign"
  input: "^resnet_v1_50/block2/unit_1/bottleneck_v1/shortcut/BatchNorm/gamma/Momentum/Assign"
  input: "^resnet_v1_50/block2/unit_1/bottleneck_v1/shortcut/BatchNorm/moving_mean/Assign"
  input: "^resnet_v1_50/block2/unit_1/bottleneck_v1/shortcut/BatchNorm/moving_variance/Assign"
  input: "^resnet_v1_50/block2/unit_1/bottleneck_v1/shortcut/weights/Assign"
  input: "^resnet_v1_50/block2/unit_1/bottleneck_v1/shortcut/weights/Momentum/Assign"
  input: "^resnet_v1_50/block2/unit_2/bottleneck_v1/conv1/BatchNorm/beta/Assign"
  input: "^resnet_v1_50/block2/unit_2/bottleneck_v1/conv1/BatchNorm/beta/Momentum/Assign"
  input: "^resnet_v1_50/block2/unit_2/bottleneck_v1/conv1/BatchNorm/gamma/Assign"
  input: "^resnet_v1_50/block2/unit_2/bottleneck_v1/conv1/BatchNorm/gamma/Momentum/Assign"
  input: "^resnet_v1_50/block2/unit_2/bottleneck_v1/conv1/BatchNorm/moving_mean/Assign"
  input: "^resnet_v1_50/block2/unit_2/bottleneck_v1/conv1/BatchNorm/moving_variance/Assign"
  input: "^resnet_v1_50/block2/unit_2/bottleneck_v1/conv1/weights/Assign"
  input: "^resnet_v1_50/block2/unit_2/bottleneck_v1/conv1/weights/Momentum/Assign"
  input: "^resnet_v1_50/block2/unit_2/bottleneck_v1/conv2/BatchNorm/beta/Assign"
  input: "^resnet_v1_50/block2/unit_2/bottleneck_v1/conv2/BatchNorm/beta/Momentum/Assign"
  input: "^resnet_v1_50/block2/unit_2/bottleneck_v1/conv2/BatchNorm/gamma/Assign"
  input: "^resnet_v1_50/block2/unit_2/bottleneck_v1/conv2/BatchNorm/gamma/Momentum/Assign"
  input: "^resnet_v1_50/block2/unit_2/bottleneck_v1/conv2/BatchNorm/moving_mean/Assign"
  input: "^resnet_v1_50/block2/unit_2/bottleneck_v1/conv2/BatchNorm/moving_variance/Assign"
  input: "^resnet_v1_50/block2/unit_2/bottleneck_v1/conv2/weights/Assign"
  input: "^resnet_v1_50/block2/unit_2/bottleneck_v1/conv2/weights/Momentum/Assign"
  input: "^resnet_v1_50/block2/unit_2/bottleneck_v1/conv3/BatchNorm/beta/Assign"
  input: "^resnet_v1_50/block2/unit_2/bottleneck_v1/conv3/BatchNorm/beta/Momentum/Assign"
  input: "^resnet_v1_50/block2/unit_2/bottleneck_v1/conv3/BatchNorm/gamma/Assign"
  input: "^resnet_v1_50/block2/unit_2/bottleneck_v1/conv3/BatchNorm/gamma/Momentum/Assign"
  input: "^resnet_v1_50/block2/unit_2/bottleneck_v1/conv3/BatchNorm/moving_mean/Assign"
  input: "^resnet_v1_50/block2/unit_2/bottleneck_v1/conv3/BatchNorm/moving_variance/Assign"
  input: "^resnet_v1_50/block2/unit_2/bottleneck_v1/conv3/weights/Assign"
  input: "^resnet_v1_50/block2/unit_2/bottleneck_v1/conv3/weights/Momentum/Assign"
  input: "^resnet_v1_50/block2/unit_3/bottleneck_v1/conv1/BatchNorm/beta/Assign"
  input: "^resnet_v1_50/block2/unit_3/bottleneck_v1/conv1/BatchNorm/beta/Momentum/Assign"
  input: "^resnet_v1_50/block2/unit_3/bottleneck_v1/conv1/BatchNorm/gamma/Assign"
  input: "^resnet_v1_50/block2/unit_3/bottleneck_v1/conv1/BatchNorm/gamma/Momentum/Assign"
  input: "^resnet_v1_50/block2/unit_3/bottleneck_v1/conv1/BatchNorm/moving_mean/Assign"
  input: "^resnet_v1_50/block2/unit_3/bottleneck_v1/conv1/BatchNorm/moving_variance/Assign"
  input: "^resnet_v1_50/block2/unit_3/bottleneck_v1/conv1/weights/Assign"
  input: "^resnet_v1_50/block2/unit_3/bottleneck_v1/conv1/weights/Momentum/Assign"
  input: "^resnet_v1_50/block2/unit_3/bottleneck_v1/conv2/BatchNorm/beta/Assign"
  input: "^resnet_v1_50/block2/unit_3/bottleneck_v1/conv2/BatchNorm/beta/Momentum/Assign"
  input: "^resnet_v1_50/block2/unit_3/bottleneck_v1/conv2/BatchNorm/gamma/Assign"
  input: "^resnet_v1_50/block2/unit_3/bottleneck_v1/conv2/BatchNorm/gamma/Momentum/Assign"
  input: "^resnet_v1_50/block2/unit_3/bottleneck_v1/conv2/BatchNorm/moving_mean/Assign"
  input: "^resnet_v1_50/block2/unit_3/bottleneck_v1/conv2/BatchNorm/moving_variance/Assign"
  input: "^resnet_v1_50/block2/unit_3/bottleneck_v1/conv2/weights/Assign"
  input: "^resnet_v1_50/block2/unit_3/bottleneck_v1/conv2/weights/Momentum/Assign"
  input: "^resnet_v1_50/block2/unit_3/bottleneck_v1/conv3/BatchNorm/beta/Assign"
  input: "^resnet_v1_50/block2/unit_3/bottleneck_v1/conv3/BatchNorm/beta/Momentum/Assign"
  input: "^resnet_v1_50/block2/unit_3/bottleneck_v1/conv3/BatchNorm/gamma/Assign"
  input: "^resnet_v1_50/block2/unit_3/bottleneck_v1/conv3/BatchNorm/gamma/Momentum/Assign"
  input: "^resnet_v1_50/block2/unit_3/bottleneck_v1/conv3/BatchNorm/moving_mean/Assign"
  input: "^resnet_v1_50/block2/unit_3/bottleneck_v1/conv3/BatchNorm/moving_variance/Assign"
  input: "^resnet_v1_50/block2/unit_3/bottleneck_v1/conv3/weights/Assign"
  input: "^resnet_v1_50/block2/unit_3/bottleneck_v1/conv3/weights/Momentum/Assign"
  input: "^resnet_v1_50/block2/unit_4/bottleneck_v1/conv1/BatchNorm/beta/Assign"
  input: "^resnet_v1_50/block2/unit_4/bottleneck_v1/conv1/BatchNorm/beta/Momentum/Assign"
  input: "^resnet_v1_50/block2/unit_4/bottleneck_v1/conv1/BatchNorm/gamma/Assign"
  input: "^resnet_v1_50/block2/unit_4/bottleneck_v1/conv1/BatchNorm/gamma/Momentum/Assign"
  input: "^resnet_v1_50/block2/unit_4/bottleneck_v1/conv1/BatchNorm/moving_mean/Assign"
  input: "^resnet_v1_50/block2/unit_4/bottleneck_v1/conv1/BatchNorm/moving_variance/Assign"
  input: "^resnet_v1_50/block2/unit_4/bottleneck_v1/conv1/weights/Assign"
  input: "^resnet_v1_50/block2/unit_4/bottleneck_v1/conv1/weights/Momentum/Assign"
  input: "^resnet_v1_50/block2/unit_4/bottleneck_v1/conv2/BatchNorm/beta/Assign"
  input: "^resnet_v1_50/block2/unit_4/bottleneck_v1/conv2/BatchNorm/beta/Momentum/Assign"
  input: "^resnet_v1_50/block2/unit_4/bottleneck_v1/conv2/BatchNorm/gamma/Assign"
  input: "^resnet_v1_50/block2/unit_4/bottleneck_v1/conv2/BatchNorm/gamma/Momentum/Assign"
  input: "^resnet_v1_50/block2/unit_4/bottleneck_v1/conv2/BatchNorm/moving_mean/Assign"
  input: "^resnet_v1_50/block2/unit_4/bottleneck_v1/conv2/BatchNorm/moving_variance/Assign"
  input: "^resnet_v1_50/block2/unit_4/bottleneck_v1/conv2/weights/Assign"
  input: "^resnet_v1_50/block2/unit_4/bottleneck_v1/conv2/weights/Momentum/Assign"
  input: "^resnet_v1_50/block2/unit_4/bottleneck_v1/conv3/BatchNorm/beta/Assign"
  input: "^resnet_v1_50/block2/unit_4/bottleneck_v1/conv3/BatchNorm/beta/Momentum/Assign"
  input: "^resnet_v1_50/block2/unit_4/bottleneck_v1/conv3/BatchNorm/gamma/Assign"
  input: "^resnet_v1_50/block2/unit_4/bottleneck_v1/conv3/BatchNorm/gamma/Momentum/Assign"
  input: "^resnet_v1_50/block2/unit_4/bottleneck_v1/conv3/BatchNorm/moving_mean/Assign"
  input: "^resnet_v1_50/block2/unit_4/bottleneck_v1/conv3/BatchNorm/moving_variance/Assign"
  input: "^resnet_v1_50/block2/unit_4/bottleneck_v1/conv3/weights/Assign"
  input: "^resnet_v1_50/block2/unit_4/bottleneck_v1/conv3/weights/Momentum/Assign"
  input: "^resnet_v1_50/block3/unit_1/bottleneck_v1/conv1/BatchNorm/beta/Assign"
  input: "^resnet_v1_50/block3/unit_1/bottleneck_v1/conv1/BatchNorm/beta/Momentum/Assign"
  input: "^resnet_v1_50/block3/unit_1/bottleneck_v1/conv1/BatchNorm/gamma/Assign"
  input: "^resnet_v1_50/block3/unit_1/bottleneck_v1/conv1/BatchNorm/gamma/Momentum/Assign"
  input: "^resnet_v1_50/block3/unit_1/bottleneck_v1/conv1/BatchNorm/moving_mean/Assign"
  input: "^resnet_v1_50/block3/unit_1/bottleneck_v1/conv1/BatchNorm/moving_variance/Assign"
  input: "^resnet_v1_50/block3/unit_1/bottleneck_v1/conv1/weights/Assign"
  input: "^resnet_v1_50/block3/unit_1/bottleneck_v1/conv1/weights/Momentum/Assign"
  input: "^resnet_v1_50/block3/unit_1/bottleneck_v1/conv2/BatchNorm/beta/Assign"
  input: "^resnet_v1_50/block3/unit_1/bottleneck_v1/conv2/BatchNorm/beta/Momentum/Assign"
  input: "^resnet_v1_50/block3/unit_1/bottleneck_v1/conv2/BatchNorm/gamma/Assign"
  input: "^resnet_v1_50/block3/unit_1/bottleneck_v1/conv2/BatchNorm/gamma/Momentum/Assign"
  input: "^resnet_v1_50/block3/unit_1/bottleneck_v1/conv2/BatchNorm/moving_mean/Assign"
  input: "^resnet_v1_50/block3/unit_1/bottleneck_v1/conv2/BatchNorm/moving_variance/Assign"
  input: "^resnet_v1_50/block3/unit_1/bottleneck_v1/conv2/weights/Assign"
  input: "^resnet_v1_50/block3/unit_1/bottleneck_v1/conv2/weights/Momentum/Assign"
  input: "^resnet_v1_50/block3/unit_1/bottleneck_v1/conv3/BatchNorm/beta/Assign"
  input: "^resnet_v1_50/block3/unit_1/bottleneck_v1/conv3/BatchNorm/beta/Momentum/Assign"
  input: "^resnet_v1_50/block3/unit_1/bottleneck_v1/conv3/BatchNorm/gamma/Assign"
  input: "^resnet_v1_50/block3/unit_1/bottleneck_v1/conv3/BatchNorm/gamma/Momentum/Assign"
  input: "^resnet_v1_50/block3/unit_1/bottleneck_v1/conv3/BatchNorm/moving_mean/Assign"
  input: "^resnet_v1_50/block3/unit_1/bottleneck_v1/conv3/BatchNorm/moving_variance/Assign"
  input: "^resnet_v1_50/block3/unit_1/bottleneck_v1/conv3/weights/Assign"
  input: "^resnet_v1_50/block3/unit_1/bottleneck_v1/conv3/weights/Momentum/Assign"
  input: "^resnet_v1_50/block3/unit_1/bottleneck_v1/shortcut/BatchNorm/beta/Assign"
  input: "^resnet_v1_50/block3/unit_1/bottleneck_v1/shortcut/BatchNorm/beta/Momentum/Assign"
  input: "^resnet_v1_50/block3/unit_1/bottleneck_v1/shortcut/BatchNorm/gamma/Assign"
  input: "^resnet_v1_50/block3/unit_1/bottleneck_v1/shortcut/BatchNorm/gamma/Momentum/Assign"
  input: "^resnet_v1_50/block3/unit_1/bottleneck_v1/shortcut/BatchNorm/moving_mean/Assign"
  input: "^resnet_v1_50/block3/unit_1/bottleneck_v1/shortcut/BatchNorm/moving_variance/Assign"
  input: "^resnet_v1_50/block3/unit_1/bottleneck_v1/shortcut/weights/Assign"
  input: "^resnet_v1_50/block3/unit_1/bottleneck_v1/shortcut/weights/Momentum/Assign"
  input: "^resnet_v1_50/block3/unit_2/bottleneck_v1/conv1/BatchNorm/beta/Assign"
  input: "^resnet_v1_50/block3/unit_2/bottleneck_v1/conv1/BatchNorm/beta/Momentum/Assign"
  input: "^resnet_v1_50/block3/unit_2/bottleneck_v1/conv1/BatchNorm/gamma/Assign"
  input: "^resnet_v1_50/block3/unit_2/bottleneck_v1/conv1/BatchNorm/gamma/Momentum/Assign"
  input: "^resnet_v1_50/block3/unit_2/bottleneck_v1/conv1/BatchNorm/moving_mean/Assign"
  input: "^resnet_v1_50/block3/unit_2/bottleneck_v1/conv1/BatchNorm/moving_variance/Assign"
  input: "^resnet_v1_50/block3/unit_2/bottleneck_v1/conv1/weights/Assign"
  input: "^resnet_v1_50/block3/unit_2/bottleneck_v1/conv1/weights/Momentum/Assign"
  input: "^resnet_v1_50/block3/unit_2/bottleneck_v1/conv2/BatchNorm/beta/Assign"
  input: "^resnet_v1_50/block3/unit_2/bottleneck_v1/conv2/BatchNorm/beta/Momentum/Assign"
  input: "^resnet_v1_50/block3/unit_2/bottleneck_v1/conv2/BatchNorm/gamma/Assign"
  input: "^resnet_v1_50/block3/unit_2/bottleneck_v1/conv2/BatchNorm/gamma/Momentum/Assign"
  input: "^resnet_v1_50/block3/unit_2/bottleneck_v1/conv2/BatchNorm/moving_mean/Assign"
  input: "^resnet_v1_50/block3/unit_2/bottleneck_v1/conv2/BatchNorm/moving_variance/Assign"
  input: "^resnet_v1_50/block3/unit_2/bottleneck_v1/conv2/weights/Assign"
  input: "^resnet_v1_50/block3/unit_2/bottleneck_v1/conv2/weights/Momentum/Assign"
  input: "^resnet_v1_50/block3/unit_2/bottleneck_v1/conv3/BatchNorm/beta/Assign"
  input: "^resnet_v1_50/block3/unit_2/bottleneck_v1/conv3/BatchNorm/beta/Momentum/Assign"
  input: "^resnet_v1_50/block3/unit_2/bottleneck_v1/conv3/BatchNorm/gamma/Assign"
  input: "^resnet_v1_50/block3/unit_2/bottleneck_v1/conv3/BatchNorm/gamma/Momentum/Assign"
  input: "^resnet_v1_50/block3/unit_2/bottleneck_v1/conv3/BatchNorm/moving_mean/Assign"
  input: "^resnet_v1_50/block3/unit_2/bottleneck_v1/conv3/BatchNorm/moving_variance/Assign"
  input: "^resnet_v1_50/block3/unit_2/bottleneck_v1/conv3/weights/Assign"
  input: "^resnet_v1_50/block3/unit_2/bottleneck_v1/conv3/weights/Momentum/Assign"
  input: "^resnet_v1_50/block3/unit_3/bottleneck_v1/conv1/BatchNorm/beta/Assign"
  input: "^resnet_v1_50/block3/unit_3/bottleneck_v1/conv1/BatchNorm/beta/Momentum/Assign"
  input: "^resnet_v1_50/block3/unit_3/bottleneck_v1/conv1/BatchNorm/gamma/Assign"
  input: "^resnet_v1_50/block3/unit_3/bottleneck_v1/conv1/BatchNorm/gamma/Momentum/Assign"
  input: "^resnet_v1_50/block3/unit_3/bottleneck_v1/conv1/BatchNorm/moving_mean/Assign"
  input: "^resnet_v1_50/block3/unit_3/bottleneck_v1/conv1/BatchNorm/moving_variance/Assign"
  input: "^resnet_v1_50/block3/unit_3/bottleneck_v1/conv1/weights/Assign"
  input: "^resnet_v1_50/block3/unit_3/bottleneck_v1/conv1/weights/Momentum/Assign"
  input: "^resnet_v1_50/block3/unit_3/bottleneck_v1/conv2/BatchNorm/beta/Assign"
  input: "^resnet_v1_50/block3/unit_3/bottleneck_v1/conv2/BatchNorm/beta/Momentum/Assign"
  input: "^resnet_v1_50/block3/unit_3/bottleneck_v1/conv2/BatchNorm/gamma/Assign"
  input: "^resnet_v1_50/block3/unit_3/bottleneck_v1/conv2/BatchNorm/gamma/Momentum/Assign"
  input: "^resnet_v1_50/block3/unit_3/bottleneck_v1/conv2/BatchNorm/moving_mean/Assign"
  input: "^resnet_v1_50/block3/unit_3/bottleneck_v1/conv2/BatchNorm/moving_variance/Assign"
  input: "^resnet_v1_50/block3/unit_3/bottleneck_v1/conv2/weights/Assign"
  input: "^resnet_v1_50/block3/unit_3/bottleneck_v1/conv2/weights/Momentum/Assign"
  input: "^resnet_v1_50/block3/unit_3/bottleneck_v1/conv3/BatchNorm/beta/Assign"
  input: "^resnet_v1_50/block3/unit_3/bottleneck_v1/conv3/BatchNorm/beta/Momentum/Assign"
  input: "^resnet_v1_50/block3/unit_3/bottleneck_v1/conv3/BatchNorm/gamma/Assign"
  input: "^resnet_v1_50/block3/unit_3/bottleneck_v1/conv3/BatchNorm/gamma/Momentum/Assign"
  input: "^resnet_v1_50/block3/unit_3/bottleneck_v1/conv3/BatchNorm/moving_mean/Assign"
  input: "^resnet_v1_50/block3/unit_3/bottleneck_v1/conv3/BatchNorm/moving_variance/Assign"
  input: "^resnet_v1_50/block3/unit_3/bottleneck_v1/conv3/weights/Assign"
  input: "^resnet_v1_50/block3/unit_3/bottleneck_v1/conv3/weights/Momentum/Assign"
  input: "^resnet_v1_50/block3/unit_4/bottleneck_v1/conv1/BatchNorm/beta/Assign"
  input: "^resnet_v1_50/block3/unit_4/bottleneck_v1/conv1/BatchNorm/beta/Momentum/Assign"
  input: "^resnet_v1_50/block3/unit_4/bottleneck_v1/conv1/BatchNorm/gamma/Assign"
  input: "^resnet_v1_50/block3/unit_4/bottleneck_v1/conv1/BatchNorm/gamma/Momentum/Assign"
  input: "^resnet_v1_50/block3/unit_4/bottleneck_v1/conv1/BatchNorm/moving_mean/Assign"
  input: "^resnet_v1_50/block3/unit_4/bottleneck_v1/conv1/BatchNorm/moving_variance/Assign"
  input: "^resnet_v1_50/block3/unit_4/bottleneck_v1/conv1/weights/Assign"
  input: "^resnet_v1_50/block3/unit_4/bottleneck_v1/conv1/weights/Momentum/Assign"
  input: "^resnet_v1_50/block3/unit_4/bottleneck_v1/conv2/BatchNorm/beta/Assign"
  input: "^resnet_v1_50/block3/unit_4/bottleneck_v1/conv2/BatchNorm/beta/Momentum/Assign"
  input: "^resnet_v1_50/block3/unit_4/bottleneck_v1/conv2/BatchNorm/gamma/Assign"
  input: "^resnet_v1_50/block3/unit_4/bottleneck_v1/conv2/BatchNorm/gamma/Momentum/Assign"
  input: "^resnet_v1_50/block3/unit_4/bottleneck_v1/conv2/BatchNorm/moving_mean/Assign"
  input: "^resnet_v1_50/block3/unit_4/bottleneck_v1/conv2/BatchNorm/moving_variance/Assign"
  input: "^resnet_v1_50/block3/unit_4/bottleneck_v1/conv2/weights/Assign"
  input: "^resnet_v1_50/block3/unit_4/bottleneck_v1/conv2/weights/Momentum/Assign"
  input: "^resnet_v1_50/block3/unit_4/bottleneck_v1/conv3/BatchNorm/beta/Assign"
  input: "^resnet_v1_50/block3/unit_4/bottleneck_v1/conv3/BatchNorm/beta/Momentum/Assign"
  input: "^resnet_v1_50/block3/unit_4/bottleneck_v1/conv3/BatchNorm/gamma/Assign"
  input: "^resnet_v1_50/block3/unit_4/bottleneck_v1/conv3/BatchNorm/gamma/Momentum/Assign"
  input: "^resnet_v1_50/block3/unit_4/bottleneck_v1/conv3/BatchNorm/moving_mean/Assign"
  input: "^resnet_v1_50/block3/unit_4/bottleneck_v1/conv3/BatchNorm/moving_variance/Assign"
  input: "^resnet_v1_50/block3/unit_4/bottleneck_v1/conv3/weights/Assign"
  input: "^resnet_v1_50/block3/unit_4/bottleneck_v1/conv3/weights/Momentum/Assign"
  input: "^resnet_v1_50/block3/unit_5/bottleneck_v1/conv1/BatchNorm/beta/Assign"
  input: "^resnet_v1_50/block3/unit_5/bottleneck_v1/conv1/BatchNorm/beta/Momentum/Assign"
  input: "^resnet_v1_50/block3/unit_5/bottleneck_v1/conv1/BatchNorm/gamma/Assign"
  input: "^resnet_v1_50/block3/unit_5/bottleneck_v1/conv1/BatchNorm/gamma/Momentum/Assign"
  input: "^resnet_v1_50/block3/unit_5/bottleneck_v1/conv1/BatchNorm/moving_mean/Assign"
  input: "^resnet_v1_50/block3/unit_5/bottleneck_v1/conv1/BatchNorm/moving_variance/Assign"
  input: "^resnet_v1_50/block3/unit_5/bottleneck_v1/conv1/weights/Assign"
  input: "^resnet_v1_50/block3/unit_5/bottleneck_v1/conv1/weights/Momentum/Assign"
  input: "^resnet_v1_50/block3/unit_5/bottleneck_v1/conv2/BatchNorm/beta/Assign"
  input: "^resnet_v1_50/block3/unit_5/bottleneck_v1/conv2/BatchNorm/beta/Momentum/Assign"
  input: "^resnet_v1_50/block3/unit_5/bottleneck_v1/conv2/BatchNorm/gamma/Assign"
  input: "^resnet_v1_50/block3/unit_5/bottleneck_v1/conv2/BatchNorm/gamma/Momentum/Assign"
  input: "^resnet_v1_50/block3/unit_5/bottleneck_v1/conv2/BatchNorm/moving_mean/Assign"
  input: "^resnet_v1_50/block3/unit_5/bottleneck_v1/conv2/BatchNorm/moving_variance/Assign"
  input: "^resnet_v1_50/block3/unit_5/bottleneck_v1/conv2/weights/Assign"
  input: "^resnet_v1_50/block3/unit_5/bottleneck_v1/conv2/weights/Momentum/Assign"
  input: "^resnet_v1_50/block3/unit_5/bottleneck_v1/conv3/BatchNorm/beta/Assign"
  input: "^resnet_v1_50/block3/unit_5/bottleneck_v1/conv3/BatchNorm/beta/Momentum/Assign"
  input: "^resnet_v1_50/block3/unit_5/bottleneck_v1/conv3/BatchNorm/gamma/Assign"
  input: "^resnet_v1_50/block3/unit_5/bottleneck_v1/conv3/BatchNorm/gamma/Momentum/Assign"
  input: "^resnet_v1_50/block3/unit_5/bottleneck_v1/conv3/BatchNorm/moving_mean/Assign"
  input: "^resnet_v1_50/block3/unit_5/bottleneck_v1/conv3/BatchNorm/moving_variance/Assign"
  input: "^resnet_v1_50/block3/unit_5/bottleneck_v1/conv3/weights/Assign"
  input: "^resnet_v1_50/block3/unit_5/bottleneck_v1/conv3/weights/Momentum/Assign"
  input: "^resnet_v1_50/block3/unit_6/bottleneck_v1/conv1/BatchNorm/beta/Assign"
  input: "^resnet_v1_50/block3/unit_6/bottleneck_v1/conv1/BatchNorm/beta/Momentum/Assign"
  input: "^resnet_v1_50/block3/unit_6/bottleneck_v1/conv1/BatchNorm/gamma/Assign"
  input: "^resnet_v1_50/block3/unit_6/bottleneck_v1/conv1/BatchNorm/gamma/Momentum/Assign"
  input: "^resnet_v1_50/block3/unit_6/bottleneck_v1/conv1/BatchNorm/moving_mean/Assign"
  input: "^resnet_v1_50/block3/unit_6/bottleneck_v1/conv1/BatchNorm/moving_variance/Assign"
  input: "^resnet_v1_50/block3/unit_6/bottleneck_v1/conv1/weights/Assign"
  input: "^resnet_v1_50/block3/unit_6/bottleneck_v1/conv1/weights/Momentum/Assign"
  input: "^resnet_v1_50/block3/unit_6/bottleneck_v1/conv2/BatchNorm/beta/Assign"
  input: "^resnet_v1_50/block3/unit_6/bottleneck_v1/conv2/BatchNorm/beta/Momentum/Assign"
  input: "^resnet_v1_50/block3/unit_6/bottleneck_v1/conv2/BatchNorm/gamma/Assign"
  input: "^resnet_v1_50/block3/unit_6/bottleneck_v1/conv2/BatchNorm/gamma/Momentum/Assign"
  input: "^resnet_v1_50/block3/unit_6/bottleneck_v1/conv2/BatchNorm/moving_mean/Assign"
  input: "^resnet_v1_50/block3/unit_6/bottleneck_v1/conv2/BatchNorm/moving_variance/Assign"
  input: "^resnet_v1_50/block3/unit_6/bottleneck_v1/conv2/weights/Assign"
  input: "^resnet_v1_50/block3/unit_6/bottleneck_v1/conv2/weights/Momentum/Assign"
  input: "^resnet_v1_50/block3/unit_6/bottleneck_v1/conv3/BatchNorm/beta/Assign"
  input: "^resnet_v1_50/block3/unit_6/bottleneck_v1/conv3/BatchNorm/beta/Momentum/Assign"
  input: "^resnet_v1_50/block3/unit_6/bottleneck_v1/conv3/BatchNorm/gamma/Assign"
  input: "^resnet_v1_50/block3/unit_6/bottleneck_v1/conv3/BatchNorm/gamma/Momentum/Assign"
  input: "^resnet_v1_50/block3/unit_6/bottleneck_v1/conv3/BatchNorm/moving_mean/Assign"
  input: "^resnet_v1_50/block3/unit_6/bottleneck_v1/conv3/BatchNorm/moving_variance/Assign"
  input: "^resnet_v1_50/block3/unit_6/bottleneck_v1/conv3/weights/Assign"
  input: "^resnet_v1_50/block3/unit_6/bottleneck_v1/conv3/weights/Momentum/Assign"
  input: "^resnet_v1_50/block4/unit_1/bottleneck_v1/conv1/BatchNorm/beta/Assign"
  input: "^resnet_v1_50/block4/unit_1/bottleneck_v1/conv1/BatchNorm/beta/Momentum/Assign"
  input: "^resnet_v1_50/block4/unit_1/bottleneck_v1/conv1/BatchNorm/gamma/Assign"
  input: "^resnet_v1_50/block4/unit_1/bottleneck_v1/conv1/BatchNorm/gamma/Momentum/Assign"
  input: "^resnet_v1_50/block4/unit_1/bottleneck_v1/conv1/BatchNorm/moving_mean/Assign"
  input: "^resnet_v1_50/block4/unit_1/bottleneck_v1/conv1/BatchNorm/moving_variance/Assign"
  input: "^resnet_v1_50/block4/unit_1/bottleneck_v1/conv1/weights/Assign"
  input: "^resnet_v1_50/block4/unit_1/bottleneck_v1/conv1/weights/Momentum/Assign"
  input: "^resnet_v1_50/block4/unit_1/bottleneck_v1/conv2/BatchNorm/beta/Assign"
  input: "^resnet_v1_50/block4/unit_1/bottleneck_v1/conv2/BatchNorm/beta/Momentum/Assign"
  input: "^resnet_v1_50/block4/unit_1/bottleneck_v1/conv2/BatchNorm/gamma/Assign"
  input: "^resnet_v1_50/block4/unit_1/bottleneck_v1/conv2/BatchNorm/gamma/Momentum/Assign"
  input: "^resnet_v1_50/block4/unit_1/bottleneck_v1/conv2/BatchNorm/moving_mean/Assign"
  input: "^resnet_v1_50/block4/unit_1/bottleneck_v1/conv2/BatchNorm/moving_variance/Assign"
  input: "^resnet_v1_50/block4/unit_1/bottleneck_v1/conv2/weights/Assign"
  input: "^resnet_v1_50/block4/unit_1/bottleneck_v1/conv2/weights/Momentum/Assign"
  input: "^resnet_v1_50/block4/unit_1/bottleneck_v1/conv3/BatchNorm/beta/Assign"
  input: "^resnet_v1_50/block4/unit_1/bottleneck_v1/conv3/BatchNorm/beta/Momentum/Assign"
  input: "^resnet_v1_50/block4/unit_1/bottleneck_v1/conv3/BatchNorm/gamma/Assign"
  input: "^resnet_v1_50/block4/unit_1/bottleneck_v1/conv3/BatchNorm/gamma/Momentum/Assign"
  input: "^resnet_v1_50/block4/unit_1/bottleneck_v1/conv3/BatchNorm/moving_mean/Assign"
  input: "^resnet_v1_50/block4/unit_1/bottleneck_v1/conv3/BatchNorm/moving_variance/Assign"
  input: "^resnet_v1_50/block4/unit_1/bottleneck_v1/conv3/weights/Assign"
  input: "^resnet_v1_50/block4/unit_1/bottleneck_v1/conv3/weights/Momentum/Assign"
  input: "^resnet_v1_50/block4/unit_1/bottleneck_v1/shortcut/BatchNorm/beta/Assign"
  input: "^resnet_v1_50/block4/unit_1/bottleneck_v1/shortcut/BatchNorm/beta/Momentum/Assign"
  input: "^resnet_v1_50/block4/unit_1/bottleneck_v1/shortcut/BatchNorm/gamma/Assign"
  input: "^resnet_v1_50/block4/unit_1/bottleneck_v1/shortcut/BatchNorm/gamma/Momentum/Assign"
  input: "^resnet_v1_50/block4/unit_1/bottleneck_v1/shortcut/BatchNorm/moving_mean/Assign"
  input: "^resnet_v1_50/block4/unit_1/bottleneck_v1/shortcut/BatchNorm/moving_variance/Assign"
  input: "^resnet_v1_50/block4/unit_1/bottleneck_v1/shortcut/weights/Assign"
  input: "^resnet_v1_50/block4/unit_1/bottleneck_v1/shortcut/weights/Momentum/Assign"
  input: "^resnet_v1_50/block4/unit_2/bottleneck_v1/conv1/BatchNorm/beta/Assign"
  input: "^resnet_v1_50/block4/unit_2/bottleneck_v1/conv1/BatchNorm/beta/Momentum/Assign"
  input: "^resnet_v1_50/block4/unit_2/bottleneck_v1/conv1/BatchNorm/gamma/Assign"
  input: "^resnet_v1_50/block4/unit_2/bottleneck_v1/conv1/BatchNorm/gamma/Momentum/Assign"
  input: "^resnet_v1_50/block4/unit_2/bottleneck_v1/conv1/BatchNorm/moving_mean/Assign"
  input: "^resnet_v1_50/block4/unit_2/bottleneck_v1/conv1/BatchNorm/moving_variance/Assign"
  input: "^resnet_v1_50/block4/unit_2/bottleneck_v1/conv1/weights/Assign"
  input: "^resnet_v1_50/block4/unit_2/bottleneck_v1/conv1/weights/Momentum/Assign"
  input: "^resnet_v1_50/block4/unit_2/bottleneck_v1/conv2/BatchNorm/beta/Assign"
  input: "^resnet_v1_50/block4/unit_2/bottleneck_v1/conv2/BatchNorm/beta/Momentum/Assign"
  input: "^resnet_v1_50/block4/unit_2/bottleneck_v1/conv2/BatchNorm/gamma/Assign"
  input: "^resnet_v1_50/block4/unit_2/bottleneck_v1/conv2/BatchNorm/gamma/Momentum/Assign"
  input: "^resnet_v1_50/block4/unit_2/bottleneck_v1/conv2/BatchNorm/moving_mean/Assign"
  input: "^resnet_v1_50/block4/unit_2/bottleneck_v1/conv2/BatchNorm/moving_variance/Assign"
  input: "^resnet_v1_50/block4/unit_2/bottleneck_v1/conv2/weights/Assign"
  input: "^resnet_v1_50/block4/unit_2/bottleneck_v1/conv2/weights/Momentum/Assign"
  input: "^resnet_v1_50/block4/unit_2/bottleneck_v1/conv3/BatchNorm/beta/Assign"
  input: "^resnet_v1_50/block4/unit_2/bottleneck_v1/conv3/BatchNorm/beta/Momentum/Assign"
  input: "^resnet_v1_50/block4/unit_2/bottleneck_v1/conv3/BatchNorm/gamma/Assign"
  input: "^resnet_v1_50/block4/unit_2/bottleneck_v1/conv3/BatchNorm/gamma/Momentum/Assign"
  input: "^resnet_v1_50/block4/unit_2/bottleneck_v1/conv3/BatchNorm/moving_mean/Assign"
  input: "^resnet_v1_50/block4/unit_2/bottleneck_v1/conv3/BatchNorm/moving_variance/Assign"
  input: "^resnet_v1_50/block4/unit_2/bottleneck_v1/conv3/weights/Assign"
  input: "^resnet_v1_50/block4/unit_2/bottleneck_v1/conv3/weights/Momentum/Assign"
  input: "^resnet_v1_50/block4/unit_3/bottleneck_v1/conv1/BatchNorm/beta/Assign"
  input: "^resnet_v1_50/block4/unit_3/bottleneck_v1/conv1/BatchNorm/beta/Momentum/Assign"
  input: "^resnet_v1_50/block4/unit_3/bottleneck_v1/conv1/BatchNorm/gamma/Assign"
  input: "^resnet_v1_50/block4/unit_3/bottleneck_v1/conv1/BatchNorm/gamma/Momentum/Assign"
  input: "^resnet_v1_50/block4/unit_3/bottleneck_v1/conv1/BatchNorm/moving_mean/Assign"
  input: "^resnet_v1_50/block4/unit_3/bottleneck_v1/conv1/BatchNorm/moving_variance/Assign"
  input: "^resnet_v1_50/block4/unit_3/bottleneck_v1/conv1/weights/Assign"
  input: "^resnet_v1_50/block4/unit_3/bottleneck_v1/conv1/weights/Momentum/Assign"
  input: "^resnet_v1_50/block4/unit_3/bottleneck_v1/conv2/BatchNorm/beta/Assign"
  input: "^resnet_v1_50/block4/unit_3/bottleneck_v1/conv2/BatchNorm/beta/Momentum/Assign"
  input: "^resnet_v1_50/block4/unit_3/bottleneck_v1/conv2/BatchNorm/gamma/Assign"
  input: "^resnet_v1_50/block4/unit_3/bottleneck_v1/conv2/BatchNorm/gamma/Momentum/Assign"
  input: "^resnet_v1_50/block4/unit_3/bottleneck_v1/conv2/BatchNorm/moving_mean/Assign"
  input: "^resnet_v1_50/block4/unit_3/bottleneck_v1/conv2/BatchNorm/moving_variance/Assign"
  input: "^resnet_v1_50/block4/unit_3/bottleneck_v1/conv2/weights/Assign"
  input: "^resnet_v1_50/block4/unit_3/bottleneck_v1/conv2/weights/Momentum/Assign"
  input: "^resnet_v1_50/block4/unit_3/bottleneck_v1/conv3/BatchNorm/beta/Assign"
  input: "^resnet_v1_50/block4/unit_3/bottleneck_v1/conv3/BatchNorm/beta/Momentum/Assign"
  input: "^resnet_v1_50/block4/unit_3/bottleneck_v1/conv3/BatchNorm/gamma/Assign"
  input: "^resnet_v1_50/block4/unit_3/bottleneck_v1/conv3/BatchNorm/gamma/Momentum/Assign"
  input: "^resnet_v1_50/block4/unit_3/bottleneck_v1/conv3/BatchNorm/moving_mean/Assign"
  input: "^resnet_v1_50/block4/unit_3/bottleneck_v1/conv3/BatchNorm/moving_variance/Assign"
  input: "^resnet_v1_50/block4/unit_3/bottleneck_v1/conv3/weights/Assign"
  input: "^resnet_v1_50/block4/unit_3/bottleneck_v1/conv3/weights/Momentum/Assign"
  input: "^resnet_v1_50/conv1/BatchNorm/beta/Assign"
  input: "^resnet_v1_50/conv1/BatchNorm/beta/Momentum/Assign"
  input: "^resnet_v1_50/conv1/BatchNorm/gamma/Assign"
  input: "^resnet_v1_50/conv1/BatchNorm/gamma/Momentum/Assign"
  input: "^resnet_v1_50/conv1/BatchNorm/moving_mean/Assign"
  input: "^resnet_v1_50/conv1/BatchNorm/moving_variance/Assign"
  input: "^resnet_v1_50/conv1/weights/Assign"
  input: "^resnet_v1_50/conv1/weights/Momentum/Assign"
}
node {
  name: "init_1"
  op: "NoOp"
}
versions {
  producer: 38
}
